trained_model/CS_LPD_Net_layer_19_ratio_20_lr_0.0001/net_params.pkl (torch_old, 90960 bytes, 4 tensors)

A2.0.weight f4 [32, 1, 3, 3]
000000 aa 68 0e be cd 3a a5 3d db 45 13 be 07 05 99 3b
       -0.13907114 0.08067856 -0.14382116 0.0046697888
000010 09 d4 67 3e da 32 fd 3d eb ee 66 be 49 ad dc bc
       0.22639479 0.12363215 -0.22552077 -0.026938098
000020 c7 12 ac bd a8 9d 95 be bf 67 b0 bd 79 6d 18 bc
       -0.08402019 -0.29221845 -0.08613538 -0.009303444
000030 5b f1 ef 3e d8 11 8b 3e 66 f6 38 3d 65 72 3a be
       0.46863827 0.2716205 0.04515686 -0.182077
000040 23 8f 4f be 86 7e d0 bc 2e 29 fc bd fa e0 84 3e
       -0.20269446 -0.025450956 -0.12312542 0.25952893
000050 55 1e de bd 30 7d 37 3d 29 8f 45 bd 4e 0d b0 bd
       -0.10845629 0.044797122 -0.04823223 -0.08596288
000060 6e 40 85 3d 06 99 46 be cc e8 61 3e 5a e1 c0 bd
       0.065064296 -0.19394311 0.22061461 -0.094179824
000070 52 27 0e be 47 f9 48 3e a3 3e a4 3e 6a f9 b8 3d
       -0.13882187 0.19626342 0.32079038 0.09031947
000080 fc 41 c1 be b6 c7 89 be ad 8e a6 3d 17 08 45 3e
       -0.37745655 -0.2691018 0.08132682 0.19241367
000090 d2 8a 8f 3e 55 0a c4 be 66 c0 53 3d 7d 07 03 3e
       0.280356 -0.38289133 0.051697157 0.12795825
0000a0 ef 6b 2e bd be 61 8f 3d 6d 9c a0 bd ea 81 f9 bb
       -0.042583402 0.07001065 -0.07842336 -0.007614364
0000b0 b9 7a 11 3c 20 c1 b8 be f3 ba 33 bd 83 6e 9e 3e
       0.008879357 -0.36084843 -0.04387946 0.3094369
0000c0 44 34 2c 3d 4d 67 fd 3c 4e 06 f9 3c c6 a6 c5 3e
       0.042042032 0.030933047 0.030398514 0.386038
0000d0 37 8c 9d bd 66 36 a5 be 3b 44 29 be 89 1c 55 3e
       -0.076927595 -0.32268065 -0.16529934 0.20811667
0000e0 7f 8f 5c be 29 24 86 bd 1d 2f 79 3e 0f ad 64 3c
       -0.21539114 -0.06549866 0.24334379 0.013957276
0000f0 6e 9f 09 3e 69 6f 45 be 67 47 d1 3c a0 7c 65 3c
       0.13439724 -0.19280781 0.025546743 0.014006764
000100 39 b4 de bd c1 ed ec be 78 d1 4e 3e 2b 05 59 bd
       -0.108742185 -0.46275142 0.20197093 -0.052983444
000110 81 34 b0 be 16 4f 16 3f ea 7a 2a 3e 1d 4a 38 bb
       -0.34415057 0.58714426 0.1664845 -0.0028120347
000120 a1 ea 14 3d 5c a4 c9 3d 6c 49 3a 3d b4 b3 4d 3d
       0.036356572 0.09845802 0.045480177 0.050220206
000130 6e 5a 73 bd 83 1f de be 13 73 f9 bc ac 23 80 3d
       -0.059412412 -0.43383417 -0.03045038 0.06256804
000140 b2 8d c9 3d 25 1b 21 bb 82 f5 a5 bc db 30 5f 3c
       0.09841479 -0.002458283 -0.020258669 0.013622488
000150 96 dc 4d bc 5c fa 99 3c 60 f3 24 bc b1 5e 0b 3c
       -0.012564799 0.018796138 -0.010067791 0.008506463
000160 37 2b a7 ba 1f 95 e2 3a e3 ca 45 bd 99 f3 ae 3e
       -0.0012753968 0.0017286873 -0.04828919 0.34170225
000170 a8 5c 82 be 73 a8 3f be 61 e0 73 3e ea fe 26 be
       -0.25461316 -0.18716602 0.23816063 -0.1630818
000180 b1 32 b8 bd 1b e3 e3 3d ab 82 15 3d f1 5d d3 ba
       -0.089940436 0.11127301 0.036501568 -0.0016126019
000190 a7 56 86 ba 99 e4 9b 3b 24 ab 8c 3b ae f2 81 3b
       -0.0010249213 0.0047574756 0.0042928625 0.0039656973
0001a0 f8 da be b9 5e 32 a1 bb 0c f7 e2 bb 45 a3 36 3c
       -0.00036402768 -0.0049193343 -0.006926423 0.011147325
0001b0 b0 7a a7 3d b6 64 85 3b e1 2d b2 bd fc 66 ed 3d
       0.08177698 0.0040708436 -0.08700157 0.11591908
0001c0 83 1c fb 3c ee 9e 29 bd 76 73 3d 3d 70 ee 31 bd
       0.030653244 -0.041411333 0.04625269 -0.043440282
0001d0 3b d8 e4 bd 39 bf 46 3b 26 ec dc 3b 92 43 bc bb
       -0.11174055 0.003032638 0.0067420183 -0.0057453597
0001e0 cf d4 82 be 32 3e 92 3e 0e 94 c0 bc 6c 80 fb be
       -0.25552985 0.28563076 -0.023508098 -0.49121416
0001f0 6c 38 ea 3e 8b 39 7c 3c f9 d8 35 3b 9f 5e b1 3b
       0.4574617 0.015394579 0.0027747734 0.005412891
000200 25 25 7f bb 88 7c 16 bc 12 4a 5d bc a9 1b fc 3b
       -0.0038932052 -0.009184964 -0.013506429 0.007693727
000210 21 7c fd 3a 16 f6 9e 3b 03 c3 80 bb 71 36 f7 3c
       0.0019339361 0.004851113 -0.003929497 0.030177327
000220 bf b0 68 bd 2c 13 d4 3c d3 fa 37 be 85 3c a6 3e
       -0.056809183 0.025888048 -0.17966776 0.32468048
000230 ec c2 1b be c5 7e 23 3e d3 17 91 be 11 46 02 3e
       -0.15211076 0.15966327 -0.2833849 0.1272204
000240 c5 e2 00 bf 29 2d e1 bd e5 68 17 3f a3 46 29 be
       -0.5034602 -0.10994942 0.5914443 -0.16530852
000250 af 32 a3 bd 30 dc 83 3e e1 81 36 3d 25 8c e8 bc
       -0.079686515 0.25753927 0.044557456 -0.028387139
000260 6d 2a b6 bb 48 74 97 bc 68 a5 63 bb 84 cd ad 3e
       -0.0055592568 -0.018488064 -0.003473604 0.33945858
000270 ca f9 4b bd 38 1c 08 bf df df 01 3d 0b 5a ae 3e
       -0.049798764 -0.5316806 0.03170764 0.34053072
000280 8c cf 15 be 97 08 e4 3c ee e0 3c bd 6f df 91 be
       -0.14629954 0.027836127 -0.046112947 -0.2849078
000290 dd e2 40 be b5 35 ce 3d 0a f5 33 3e 1b 79 91 3e
       -0.18836541 0.100688376 0.17573944 0.2841271
0002a0 d7 e0 69 3e 47 cf 08 be de f7 05 be 9f 3f 63 3d
       0.22839676 -0.1336032 -0.13082835 0.055480596
0002b0 c4 d0 9a b9 e2 b6 9c 3e 9b a3 1b bd 8c d1 72 be
       -0.00029528711 0.3060828 -0.037997823 -0.23712748
0002c0 dd f0 e9 bd 60 85 08 bc a0 df 5c bc 10 4b eb 3d
       -0.11422894 -0.00833258 -0.013481051 0.114889264
0002d0 13 50 7e bc 4c ce 91 bd d1 7f 47 3d e9 a8 05 be
       -0.015522021 -0.07119426 0.04870588 -0.13052715
0002e0 bb 0f a8 3e 06 b3 34 be ad 73 e1 3c 72 30 26 3d
       0.328245 -0.17646417 0.027520979 0.040573545
0002f0 c6 61 b6 bc a5 01 10 3f 1b 1b 04 3d fd d6 71 3b
       -0.022263419 0.5625251 0.032252412 0.0036901825
000300 e4 77 1f bc 06 7b 0e bf 66 6b d5 bc 3f ce 89 3c
       -0.009733174 -0.5565647 -0.026052188 0.016821979
000310 05 55 89 bd 1a 95 1e 3d 6b d0 62 3e 0b 48 6e bd
       -0.06705669 0.038716413 0.22149818 -0.058174174
000320 c7 04 d8 ba f1 f2 42 3d d5 14 ea be cd 4e 3c 3c
       -0.0016480916 0.04759497 -0.4571902 0.011493397
000330 65 f5 8b bc 5e 1a ca bd 92 b6 af 3e 76 ce 66 be
       -0.017084787 -0.098683104 0.34318978 -0.22539696
000340 83 df 9c 3e 84 f5 82 3e 43 36 e4 bd da bd 8b 3e
       0.30639276 0.2557794 -0.11143162 0.27293283
000350 0b 4c 97 bd b9 48 f6 bd 20 31 c9 bd 71 53 53 be
       -0.07387551 -0.120255895 -0.09823823 -0.20637299
000360 25 7c 95 3c 42 0e a6 bd 93 f9 33 be a2 45 18 bd
       0.018247673 -0.08108188 -0.17575674 -0.037175782
000370 23 23 43 3d b3 fd 2c 3c ca 38 94 39 d6 f2 be 3d
       0.04764093 0.0105585335 0.0002827107 0.09323661
000380 4f 3f ee 3d 30 4b c7 bc 97 a3 99 bd 87 7b bc 3d
       0.11633169 -0.024327844 -0.075019054 0.092032485
000390 42 73 48 be 27 9e e0 be bd 5e 2e be 1a 68 66 3e
       -0.19575217 -0.4387066 -0.17028327 0.22500649
0003a0 64 50 01 3f fb f7 9d 3d fb 96 71 3e 11 73 b7 be
       0.5051329 0.07713314 0.2359275 -0.35829976
0003b0 24 02 ca 3d a6 04 9a 3d fb 3e ec 3d fe 02 2f 3e
       0.098636895 0.07520418 0.1153545 0.17090985
0003c0 42 a3 79 be 03 8f 48 3e 90 a1 94 be c8 d7 0d bf
       -0.24378684 0.19585805 -0.29029512 -0.5540738
0003d0 f4 bd 73 be 13 9c 32 3a 01 0e 25 be 0c 78 3a bd
       -0.2380293 0.0006813418 -0.16118623 -0.045524642
0003e0 5f 02 0e 3e 26 1b f3 3c 4d 0d 83 3e 55 08 12 3f
       0.13868092 0.029676031 0.25596085 0.57043964
0003f0 f7 42 12 be 63 10 e7 bc 6a 07 21 be b6 1f 1f bd
       -0.14283358 -0.028206056 -0.15725484 -0.0388486

B.0.weight f4 [32, 32, 3, 3]
000000 12 b6 ba bc 41 0e 96 bc 3d 9e 7a 3e 14 36 c3 bd
       -0.022791896 -0.018317344 0.24474426 -0.09531799
000010 78 53 9a be 02 bf 8e bd 2b 31 54 3e 3a 51 09 bc
       -0.30141807 -0.069700256 0.20721881 -0.008381182
000020 98 6d 7a 3e 5d 39 92 3a bb aa bf 3d 2b 8e 2c 3d
       0.24455869 0.0011156012 0.09358736 0.04212777
000030 05 a7 64 3c 12 a9 57 bd e1 1d 69 bc a9 49 04 be
       0.013955836 -0.052651472 -0.014228315 -0.12918724
000040 51 cf 29 3d 61 bb 8c 3d f0 47 30 3e c6 7a a7 3e
       0.041457478 0.06871677 0.17214942 0.32710856
000050 e3 a5 d3 3d d7 33 6b 3e 5c f2 1b be 69 1a 57 bc
       0.10334375 0.22968994 -0.15229172 -0.013128855
000060 74 0e 90 3d 96 72 1a bd 20 1c 99 bd 28 dc 11 3e
       0.07034007 -0.037706934 -0.074760675 0.14244139
000070 6c 6d 8d be 38 9d b3 bd a3 d3 1b bc 0a 84 43 3d
       -0.27622545 -0.087702215 -0.009510907 0.047733344
000080 82 40 0a be 45 e1 99 be c7 f9 e4 b9 17 8f 12 bd
       -0.1350117 -0.3005468 -0.00043673647 -0.035780992
000090 e9 46 f6 bc 86 ba 73 3e e3 7b 59 be f7 c1 2b 3e
       -0.03006311 0.23801622 -0.21238665 0.1677321
0000a0 ac c6 3f 3e 6e 4a 47 bc 13 6c 2b bd 9b b0 40 3e
       0.18728131 -0.0121637415 -0.041851114 0.1881737
0000b0 31 6d 99 be 99 13 09 bd 90 74 5a 3c bf 98 19 3e
       -0.2996612 -0.033465955 0.013333455 0.14999674
0000c0 95 4e ce bd 6c 33 52 3e 09 ad 8a bc 26 b2 d6 bd
       -0.10073582 0.20527428 -0.016928213 -0.10483198
0000d0 54 08 fc bd 02 07 85 bd 92 0a 81 3c 74 95 7f 3c
       -0.12306276 -0.06495477 0.01575211 0.015599597
0000e0 cc 2a d8 be 4b a4 67 be 87 1b 6e 3e cf aa c1 be
       -0.4222015 -0.22621267 0.23252688 -0.3782563
0000f0 6f f7 54 be a3 ac 02 3c f7 e8 15 3d 32 02 e5 3d
       -0.20797513 0.00797573 0.036599126 0.11182059
000100 d9 57 78 3c 12 c6 4d be 94 e2 72 bd c1 a5 a5 bc
       0.015157663 -0.20095089 -0.059298113 -0.02022064
000110 30 50 83 3b 35 cd 0d 3e 39 a4 08 3e cd 4f 99 3d
       0.004007362 0.13847812 0.13343896 0.07485924
000120 4c 5f d1 3e 53 a7 fc 3d 5b 20 12 3e 9a c0 ca 3d
       0.40893018 0.12336602 0.14270155 0.09900017
000130 59 bf 27 bd 0c 89 ad be cf 57 a6 bd dc 24 4d 3e
       -0.040953968 -0.3389362 -0.08122217 0.20033592
000140 56 3b 23 be a4 8d 86 3e c4 0e c4 3e c2 ec d1 3e
       -0.15940604 0.26279938 0.38292515 0.41000944
000150 5c 2e 38 3d c6 ac 7b 3e 93 e0 45 3e 52 2f a3 3d
       0.044966087 0.24577627 0.1932395 0.0796801
000160 bb d8 91 3d cd c2 45 3e f3 e5 64 bd d7 50 c2 bd
       0.07121416 0.19312592 -0.05588336 -0.09488075
000170 17 fb dc bd 21 3a 9e 3b 79 02 85 bb f1 ed 3f 3e
       -0.10790079 0.004828707 -0.0040591327 0.18743111
000180 d4 60 5b be 19 08 c6 3d 59 e2 57 3c bd d2 bf bc
       -0.21423656 0.09669513 0.013176524 -0.023415918
000190 cf 2e b3 3d 87 48 8f 3d 93 b3 47 bd 40 15 cb 3d
       0.087491624 0.06996255 -0.04875524 0.099161625
0001a0 b6 54 90 3d c5 3d 12 be 3f 46 80 3d 39 7a 69 bd
       0.07047407 -0.14281376 0.062633984 -0.057001326
0001b0 d5 22 6b be cc e1 9c bd 76 03 da be 16 0c f3 3d
       -0.22962506 -0.07660255 -0.42580765 0.118675396
0001c0 cd 74 af 3e 59 c9 41 bd cd 78 cd 3e 20 e1 15 3e
       0.342688 -0.04731116 0.40131226 0.1463666
0001d0 1a b5 b6 be 6d d2 e8 3c 97 e8 5a 3d ca 94 af bd
       -0.35685045 0.028420651 0.05344447 -0.08573301
0001e0 f5 51 07 3d d5 7b f7 3c 62 58 95 3d 1f 00 01 3e
       0.033037145 0.030210415 0.07292248 0.12597702
0001f0 06 c5 c4 3d cd 9b 47 3e 0b e5 96 3e 56 43 51 3e
       0.09607892 0.19493027 0.2947162 0.20435843
000200 e5 d8 0f 3e 79 00 07 3e 49 0a 89 3e c6 65 6c 3e
       0.14047582 0.13183774 0.2676566 0.23085698
000210 9a 23 12 be e7 e3 d4 bd 75 ba 16 3e ac b8 42 3d
       -0.14271393 -0.103950314 0.14719565 0.047539398
000220 5f 77 41 be d5 f9 74 be 91 85 18 be c9 ca bc 3d
       -0.18893193 -0.23923428 -0.14894702 0.09218366
000230 65 73 7c be 26 64 c9 bd 3e f9 24 3e e3 1c 3d be
       -0.24653395 -0.09833555 0.16110703 -0.1846805
000240 76 e9 f8 bd 3e 97 7d 3d 7b a2 64 be 6b ca e2 3c
       -0.12153904 0.061911814 -0.22327606 0.027684411
000250 a2 bc 7b 3d b7 11 4e 3e 23 c3 e6 bd 6f 45 7d bd
       0.06145919 0.20123945 -0.11267688 -0.061833795
000260 4d fe 1a be 77 eb 7c bc 09 11 3a be e6 33 0f 3d
       -0.1513607 -0.015436999 -0.18170561 0.034961604
000270 3a a8 36 3e ac 04 87 bb 47 92 67 be 6c bf f1 3c
       0.17837611 -0.00412043 -0.22614394 0.029510222
000280 b4 2a 53 3d c0 1a 5a 3e 51 eb dd bd d1 a1 8a be
       0.051554397 0.21299267 -0.10835899 -0.2707658
000290 5f 97 30 3e 61 dc b4 bd 9f 2a 82 be c8 e3 d0 3d
       0.17245243 -0.088310964 -0.25423142 0.10199696
0002a0 46 48 ba be cc b1 e1 bd 02 e2 c0 3d 33 b7 ac bc
       -0.36383265 -0.1102024 0.094181076 -0.02108345
0002b0 40 83 c4 3d ef f1 21 bd ca ee 3b be 1c 9d 2c bd
       0.095953465 -0.039537366 -0.1835281 -0.04214202
0002c0 9a 40 fa 3d fb 0b b9 bd ba d3 f9 bc 81 b9 19 3d
       0.12219353 -0.09035488 -0.030496467 0.037530426
0002d0 ed 77 57 3d 8b ad e1 bd 87 2b 91 3e 04 c0 98 3d
       0.052604605 -0.11019429 0.2835352 0.07458499
0002e0 3c d1 2a be bb ed 16 3e 08 c5 d4 bd 9f 52 17 be
       -0.16681379 0.14739124 -0.10389143 -0.14777611
0002f0 b1 9a df 3d bf c7 bd 3d 72 a8 52 be bf 35 a1 3d
       0.10918177 0.09266614 -0.2057207 0.078715794
000300 69 22 fc 3c 1f 7d 97 bd f6 ac 07 3d 66 bc 1c be
       0.030778127 -0.07396912 0.033123933 -0.15306243
000310 fc f2 aa bd ee b2 2b 3c 94 45 3f bd 89 84 2e 3e
       -0.08347127 0.010479672 -0.046697214 0.17042746
000320 42 c8 96 bd e6 15 99 bd 61 6b c3 bd 51 b3 9c 3d
       -0.07362415 -0.0747488 -0.09541965 0.076513894
000330 d2 28 f6 3d 05 98 82 3d 1a d8 1c 3c eb 79 c7 bd
       0.120195046 0.06376652 0.009573007 -0.09740051
000340 8e f2 2f be 04 c8 1e 3e ad b2 07 3e 1f d5 48 3d
       -0.17182371 0.15505987 0.13251753 0.049031373
000350 b2 49 42 3e 18 a6 7b be 43 7d f7 3c 35 fd 37 3d
       0.18973425 -0.24575078 0.030211097 0.04491921
000360 a0 58 99 bd 91 7f 8e bd de 28 0b 3f a4 4d 1e be
       -0.07487607 -0.06957925 0.54359233 -0.15459305
000370 ec f6 8e be ab b1 6d 3d 5a 5f b6 bc f7 e7 5c 3d
       -0.2792276 0.058030766 -0.022262264 0.053932156
000380 43 aa f6 bd 29 68 a7 3d d3 10 e7 3d d2 bf 6f bd
       -0.120441936 0.08174164 0.11282506 -0.058532543
000390 64 ec d9 3d e1 93 a7 3d 83 27 00 be e2 f3 96 be
       0.10640791 0.081825025 -0.12515073 -0.29482943
0003a0 07 3f f7 bd 0b b2 9d be a3 38 9a bc 9f 2e 66 3c
       -0.120725684 -0.30799899 -0.018825835 0.014049201
0003b0 df 84 34 bd 48 cd a8 bc 62 3d 2a 3b b3 97 55 3d
       -0.04407203 -0.020605698 0.0025976528 0.052146625
0003c0 1f b5 63 bc 28 ad 61 3e 6f 2a ab 3d 9a 21 61 3c
       -0.013898163 0.2203871 0.08357703 0.013740921
0003d0 53 84 92 bc e7 2f a1 bc e7 14 45 3d b3 11 32 3d
       -0.017885363 -0.019676162 0.048115637 0.04347391
0003e0 37 81 a3 3c ec 98 25 3c c0 7d 2e 3d a1 7d ba 3d
       0.019959075 0.01010726 0.042600393 0.09105993
0003f0 6e f9 a6 3e b4 92 0b ba 79 67 b7 bd d6 2c 4d be
       0.32612175 -0.00053242897 -0.08955283 -0.20036635

AT2.0.weight f4 [1, 32, 3, 3]
000000 a9 43 59 bd a8 12 20 3b c0 33 6c be d8 a1 80 3e
       -0.05304304 0.0024425182 -0.23066616 0.25123477
000010 bb d2 c4 3d 8d ad 6a be f0 17 e0 3d 83 2f 32 3e
       0.09610506 -0.22917767 0.10942066 0.17400937
000020 3b cf b9 39 da 34 b5 3b c8 bb 18 3e 2f 6e 12 3e
       0.00035440348 0.005529982 0.14915383 0.14299844
000030 f6 4c 0c bd 46 81 42 be e1 ff 9f be 00 1f e6 bc
       -0.034253083 -0.18994626 -0.31249908 -0.028090954
000040 40 2e 81 3d 71 1e 56 3e 41 d5 94 3e df 83 98 be
       0.063076496 0.2091005 0.2906895 -0.2978811
000050 be c0 ba 3d 2c 7e 09 be 9a 9c f8 bd 13 cf 0d 3d
       0.09118794 -0.13427037 -0.121392444 0.03462131
000060 d6 21 de bd b0 06 b6 3e 06 94 da bd 24 26 43 be
       -0.108462974 0.35551977 -0.106727645 -0.19057518
000070 c8 94 e0 bd 58 9b 8a 3e fd 6f c0 3e f1 5c f6 bd
       -0.10965878 0.27071643 0.3758544 -0.12029446
000080 f3 45 aa be f5 48 28 be a1 3c 1a 3e 04 cd eb 3d
       -0.33256492 -0.16434081 0.1506219 0.11513713
000090 a4 26 8e ba 14 96 7c 3c 57 60 21 3e b4 c6 c7 bd
       -0.0010845256 0.015416641 0.15759407 -0.097546965
0000a0 7e 0d 04 3c 39 9e 42 be 03 2c aa bc 44 c3 db 3e
       0.008059857 -0.1900567 -0.02077294 0.42922413
0000b0 f1 b6 be be 0d 51 8f be 69 04 6a bd 0c 48 9c 3e
       -0.37248948 -0.27991524 -0.057133112 0.30523717
0000c0 ef 00 40 3d 12 91 33 3d 10 42 4f 3d f2 8b 71 3e
       0.04687589 0.04383952 0.05060011 0.23588541
0000d0 87 9c b0 bc a2 38 a2 be 4d d2 32 3d 05 0a d6 bd
       -0.021559013 -0.31683832 0.04365759 -0.1045113
0000e0 79 9a 28 be e7 8e 0f 3e 90 15 84 3d 9c 5d 1c be
       -0.16465177 0.14019357 0.06449425 -0.15270084
0000f0 7e ea f6 bd a5 b5 fe 3d 06 58 a0 3d a2 8d 50 bc
       -0.120564446 0.1243699 0.07829289 -0.01272908
000100 98 e1 71 bd 68 3b b2 be 36 ec 29 3e 39 43 d6 3b
       -0.059053034 -0.34810948 0.16594014 0.0065387753
000110 c5 07 8a bd 2f fe 8f 3e 5b 82 53 3d f5 c0 8a bc
       -0.06739763 0.28123614 0.05163799 -0.016937712
000120 ad 44 60 3c a7 16 35 bb 37 d6 48 3d a2 a0 08 3f
       0.013688249 -0.002763191 0.049032416 0.53370106
000130 17 f4 34 3e 0a 76 a2 bd a4 84 43 3d d9 99 32 bd
       0.17671238 -0.079326704 0.047733918 -0.04360375
000140 9e 6e 8a bd d6 24 31 3e ef d9 15 be 95 ae 6f 3c
       -0.0675938 0.17299208 -0.14633916 0.014629026
000150 d8 2d a7 be e8 f7 01 3d 90 1b 95 be ed 02 ce be
       -0.32652164 0.031730562 -0.2912259 -0.40236607
000160 f2 f7 ae 3e 08 1e 20 3f 75 d4 1f 3c dc ac 02 3e
       0.34173542 0.62545824 0.009755244 0.12761253
000170 1f 19 35 39 67 5f 0f be 83 9a 37 3e 34 b9 2d be
       0.00017270863 -0.14001237 0.17930035 -0.1696518
000180 76 02 14 be 1b 56 83 3e 2f 65 bb bd a2 d5 78 be
       -0.14454064 0.2565163 -0.091501586 -0.24300244
000190 0f f8 9a be 80 2d 23 be 6b 0e 18 3f 65 f0 ce bc
       -0.3026738 -0.15935326 0.59397 -0.025261113
0001a0 80 0e 42 3d 60 c0 76 3e ef 77 b3 be 9f ae 4b 3e
       0.04737711 0.24096823 -0.3505244 0.19890831
0001b0 a3 85 a0 be 51 b8 d3 bd e7 a9 1c 3e b2 96 f3 bd
       -0.31351957 -0.1033789 0.15299188 -0.11893977
0001c0 38 b9 b4 3d c5 01 5d 3e 9d 99 51 be ab 8f 23 3d
       0.0882439 0.21582706 -0.20468755 0.039931934
0001d0 af e6 6d 3e d9 92 05 3d 3b 42 a3 3e 00 64 ab be
       0.2323253 0.032610748 0.31886467 -0.3347473
0001e0 f5 df 4c bc df 61 57 3e 7b f0 2b be 35 71 a5 3b
       -0.012504567 0.21033429 -0.16790955 0.0050488957
0001f0 36 1b a1 3a d8 e4 a7 3b 6e f2 09 bd b7 2d d6 be
       0.0012291435 0.005123716 -0.033678465 -0.41831753
000200 40 49 a5 be d2 5b a2 be 2b 7a 40 3f 68 66 39 3f
       -0.32282448 -0.31710678 0.75186414 0.72421885
000210 87 a1 1f 3d f5 d4 ab be 6b 0e 1d be 6f 44 1d 3e
       0.038972404 -0.3356091 -0.15337531 0.15358137
000220 05 81 d7 be e5 9e 7d 3e d4 7b 51 be f4 1e 0e 3f
       -0.42090622 0.24767645 -0.20457393 0.5551598
000230 bf 38 51 be 6b a3 9b 3c 8d 1e f2 bd 2a 7a 8f bc
       -0.20431803 0.018998822 -0.11822233 -0.017514307
000240 42 68 c1 3b c1 96 0b bc a0 d5 bb 3c 53 df da 3d
       0.005902321 -0.008519829 0.022929013 0.10687127
000250 b8 ae dc bc 5f 66 d7 bd 12 50 ad 3e 38 56 7c bd
       -0.026938781 -0.105175726 0.3385015 -0.061605662
000260 4f 3d 8f be bf 07 09 3d 0b c5 85 bd b0 00 4a 3e
       -0.27976462 0.033454653 -0.065317236 0.19726825
000270 21 79 1d bd c7 d1 b7 be 32 2e b1 bd b4 c7 76 3e
       -0.038445596 -0.35902235 -0.08651389 0.24099618
000280 ca d9 35 bc ba cb 48 3c 6b e3 de 3d 97 e2 86 3d
       -0.011099288 0.012255603 0.1088322 0.06586187
000290 51 36 4f be d8 d2 38 be 33 e2 b3 bd ab db 04 be
       -0.20235564 -0.1804918 -0.087833785 -0.12974422
0002a0 29 9d b8 3d 7b 3a 73 3e e0 29 2c 3d 5f 12 e2 bc
       0.09014351 0.23752777 0.042032123 -0.02759665
0002b0 44 e1 19 39 bd 69 f5 3d 9a b3 c2 3d 6d 23 27 3e
       0.00014675135 0.119830586 0.095069125 0.16322108
0002c0 36 42 ce 3d ea c3 ab be d0 9a 05 bd 2b ff c2 bc
       0.100712225 -0.33547908 -0.032618344 -0.023803314
0002d0 0d fc 6b bc 3c 72 95 3c c0 d2 98 3c 73 29 7e be
       -0.014403355 0.018242948 0.01865518 -0.24820499
0002e0 a5 3a b9 3e 0d 0a 90 bd a2 ba dd bd 36 ee f1 bd
       0.36177555 -0.07033167 -0.10826613 -0.11813013
0002f0 30 10 ab 3d 78 db c7 bc 47 2f e0 3c ce cb 0d bd
       0.08352697 -0.024396643 0.027366294 -0.03461819
000300 1c 8f 0a bc f8 72 c6 3e 3e f9 a2 bc 67 67 0f bd
       -0.0084569715 0.3875959 -0.019894239 -0.03501072
000310 6b fc 53 3c ff 6f a8 be bf 15 85 3e ac 9f ab bd
       0.012938599 -0.32897946 0.25993153 -0.08380064
000320 b2 32 15 3b cc 81 94 bd 7f d3 b1 be d0 6d 56 bc
       0.0022765812 -0.07251319 -0.3473167 -0.013087705
000330 27 2f 02 bc e2 34 40 bd 33 ac 2a 3e d2 ec e2 bd
       -0.007945812 -0.046925433 0.16667251 -0.11080326
000340 eb d7 5e bd 8e 52 9d bd 6a b8 35 bd 9d 4d 80 3e
       -0.054405134 -0.07681762 -0.044365324 0.25059214
000350 77 9d a3 bd 20 5b 23 3e 4c 3d 39 3e 36 1d 2c be
       -0.079890184 0.1595273 0.18089789 -0.16808018
000360 2c d2 6d 3e 33 2f 89 3e 96 b8 a7 bc 13 b0 6d 3b
       0.23224705 0.26793823 -0.02047376 0.0036268278
000370 e3 17 fc 3d 76 cc be bd d4 f4 c4 be 74 fd 21 be
       0.123092435 -0.093163416 -0.3846804 -0.15819341
000380 3c a6 df 3b d4 57 ab 3c af 1d bc 3e f4 2d f7 3d
       0.0068252366 0.020915903 0.36741397 0.12069312
000390 75 cc bd bd 1b 77 b7 be 1a bd ab bd 6d 9e b3 3d
       -0.09267513 -0.35833058 -0.08385678 0.08770452
0003a0 bc a0 a8 bd 94 f5 f5 bc 21 60 67 3e 33 b6 32 be
       -0.08233783 -0.030024327 0.22595264 -0.17452316
0003b0 77 09 7d 3d 25 be 12 be bb fb 62 bd 1f 44 c0 bd
       0.061776605 -0.14330347 -0.05541585 -0.09387993
0003c0 a2 b7 b5 bc 45 8b 8d 3e 1b 7b f8 3c dc af 9b 3e
       -0.02218229 0.27645317 0.030332139 0.30407608
0003d0 0d 6e d9 3d ee 05 8b 3c 71 a0 4f 3d 09 82 10 bd
       0.10616694 0.016970601 0.05069012 -0.03528026
0003e0 b6 d7 50 bd 59 dd 03 3c e7 83 9b bd d6 72 9c be
       -0.050986968 0.008048379 -0.07593518 -0.30556363
0003f0 94 0a 82 be 7f 00 04 3e d9 bc 0d 3e 7b 5d 82 be
       -0.25398695 0.12890814 0.13841571 -0.25461945

BT.0.weight f4 [32, 32, 3, 3]
000000 bc 28 9a 3d 8f e0 90 bd 33 3c bb 3b 10 f4 ca 3d
       0.07527301 -0.07074081 0.0057139634 0.099098325
000010 43 e4 14 be 85 a1 77 bc 56 45 d7 3e 43 fe 5b 3e
       -0.145402 -0.015114193 0.42045087 0.21483712
000020 69 e9 d7 bc 94 33 a3 3d d8 64 10 be e3 34 a0 bc
       -0.026356416 0.07968822 -0.14100969 -0.019556468
000030 99 d7 d8 bd f2 eb 25 3e 29 bb f7 3c bc aa cf 3c
       -0.10587997 0.16203287 0.030240612 0.025349967
000040 64 a4 d2 bd bf f6 d1 bc bd d5 4c bd 86 5a 8d 3d
       -0.10285261 -0.025630353 -0.050008524 0.069020316
000050 c2 56 2b bd 92 3b ee bc b1 14 f1 3d 2e e3 67 bd
       -0.041830786 -0.02908114 0.11771525 -0.05661314
000060 f3 19 69 3d 48 15 40 be 05 49 34 3b d5 f4 c0 3e
       0.056909513 -0.18758118 0.0027509343 0.37686792
000070 ab 49 06 3f 95 ef 3c be b3 8d aa bc 26 75 07 3f
       0.5245616 -0.18450768 -0.02081952 0.5291313
000080 ca 74 d7 3d 17 5d 89 3e 3b 33 15 3f ff c6 77 be
       0.105203226 0.26828834 0.58281296 -0.24197005
000090 60 9c 56 3d b8 fc b2 3d 33 9b 1d 3e 45 15 3c be
       0.052395225 0.087396085 0.15391235 -0.18367489
0000a0 ca 47 a1 3d 0b b7 81 3d f9 4d 63 3e e7 9c 6b be
       0.07875021 0.06333741 0.22197713 -0.23009072
0000b0 48 fe 3a bb 28 13 49 3e 02 89 a5 bc c8 23 8f 36
       -0.002853291 0.19636214 -0.020206932 4.2658976e-06
0000c0 33 00 98 3d b5 27 74 3d 4d 6b 43 3c 25 80 0c 3d
       0.07421913 0.05960818 0.011927438 0.034301896
0000d0 60 32 46 3d 1d d3 75 bd 7f f2 27 be 45 cc 47 3c
       0.048387885 -0.060015786 -0.16401099 0.012194698
0000e0 09 22 c1 3d fa 0a 91 be cb da cc bd 18 61 5a be
       0.0943032 -0.28328687 -0.10002669 -0.21326101
0000f0 bd 48 1f bd 61 87 28 3e b8 d2 1a 3e 8d c2 98 bd
       -0.038887728 0.16457893 0.15119445 -0.074589826
000100 b0 c3 cf 3c f4 a5 2e bd 7f 4b a2 3c 17 54 20 3e
       0.025361866 -0.042638734 0.01981139 0.15657078
000110 51 8e 06 3d d8 86 d5 bd eb d5 97 bd b2 12 93 3d
       0.032850567 -0.1042611 -0.074138485 0.071813
000120 fc 72 61 3d 5d f7 93 3d a7 da 44 bd 6b 41 bc b9
       0.0550413 0.07224915 -0.048060086 -0.00035906894
000130 1b 26 15 3d 8d 22 84 3e 00 94 03 3f ef df 6d 3e
       0.036413293 0.2580761 0.51397705 0.23229955
000140 31 98 3e bd 16 07 0e 3e c1 27 8a be 76 6a 89 3e
       -0.04653186 0.1386989 -0.26983455 0.26839036
000150 e4 2a 87 3d c9 bb 13 be 84 a9 4a 3e b6 13 4a 3f
       0.065999776 -0.14427103 0.19791228 0.78936327
000160 23 8d 3d be f2 41 49 bb e8 6e 05 bd 24 8f b9 3e
       -0.1851087 -0.0030709472 -0.03257647 0.3624202
000170 8f 33 79 be 5a 30 fa bd 87 6f bb 3c a6 77 1f 3e
       -0.24336074 -0.122162536 0.022880329 0.15572986
000180 64 97 8b be 40 0e 98 be de c9 cd bd 4c da 12 bd
       -0.2726394 -0.29698372 -0.10048269 -0.035852715
000190 53 34 57 3d 28 13 38 bd e8 da 39 bc 9f 40 a3 3d
       0.052540135 -0.044940144 -0.011343695 0.0797131
0001a0 99 06 ac 3d 94 e7 fc 3d 2b ed 77 bc 71 fe 1e 3d
       0.08399696 0.123488575 -0.015132229 0.038816873
0001b0 89 20 4d bd c4 cc 58 3d 15 47 d0 3d 05 a8 06 bd
       -0.050079856 0.052929655 0.10169808 -0.03287508
0001c0 2f cc be bd 0b 1c 9d bd 8e a6 69 3d 31 65 64 3e
       -0.09316289 -0.076713644 0.057043605 0.22304226
0001d0 f9 b3 c1 3c ad c9 87 3b 55 75 26 bd 45 38 97 bd
       0.023645388 0.0041439147 -0.04063924 -0.073837794
0001e0 30 29 b1 bd 7d a9 11 bd 3a a4 98 3e 49 c1 c1 3d
       -0.08650434 -0.035562027 0.29812795 0.09460694
0001f0 07 d5 99 3d 39 52 ee bd b6 b0 2f be 49 59 c1 bd
       0.07511335 -0.116367765 -0.17157254 -0.09440858
000200 2c b8 df 3d bb 95 67 3c 32 e4 98 bd 8d d1 77 be
       0.109238 0.01413482 -0.074654 -0.24201031
000210 d2 a4 9a be 27 e5 83 3e c9 64 9d bd b6 6e 27 bd
       -0.30203873 0.25760767 -0.07685239 -0.040877067
000220 78 c0 b7 be 55 aa 89 3e 74 5b 51 be 18 41 03 be
       -0.3588903 0.26887766 -0.20445043 -0.128178
000230 5f dd a1 3d 0e 2a 80 3b d5 25 f7 be fa cf 87 3e
       0.07903551 0.0039112633 -0.4827105 0.2652586
000240 91 c6 ce be 25 c2 78 3e 5c 84 35 3d e4 27 c3 3e
       -0.4038587 0.2429281 0.04431568 0.38116372
000250 9b 05 f2 3d b4 0a 39 bf 99 55 e4 3e 18 1e e3 bd
       0.118174754 -0.72281957 0.44596556 -0.11089724
000260 11 20 95 3e eb a9 33 3d eb f4 3b bd fe 9f 2e be
       0.29126027 0.04386322 -0.04588787 -0.1705322
000270 46 fb 3f b9 54 8d c6 bb 61 1b 0c 3e 47 f3 0b 3e
       -0.00018308786 -0.006059328 0.13682319 0.13667022
000280 85 eb b2 3e 12 a5 8f 3d d5 19 3d 3c 10 24 31 be
       0.34945312 0.070139065 0.011541803 -0.17298913
000290 3c b5 d2 3e 41 0a 3b be 62 23 2c 3e ac d1 bc 3d
       0.41153896 -0.1826563 0.16810372 0.09219679
0002a0 38 12 6d be f3 74 89 3d 70 f7 97 be f0 40 75 3d
       -0.23151481 0.067117594 -0.29680967 0.059876382
0002b0 1d b3 da be 48 da c7 3c 7b 4d 3b 3c e4 8b 32 3e
       -0.42714778 0.024396077 0.011432047 0.17436177
0002c0 d3 36 50 be 0e d8 95 bd e7 d5 8c 3e d8 09 00 be
       -0.20333414 -0.073166 0.27506945 -0.12503755
0002d0 dd ae 02 be 6d 4b 2b bc 69 0e 48 bc 79 38 62 bd
       -0.12762018 -0.010454995 -0.012210467 -0.055229638
0002e0 20 51 41 be 62 98 a6 3e 29 8b c3 3d 9c c2 0b be
       -0.18878603 0.32538134 0.09548027 -0.13648456
0002f0 3c 4d ce bd ac 59 9d 3d 22 f2 a2 3e 8f e8 c1 3d
       -0.10073325 0.07683119 0.31825358 0.09468185
000300 82 65 0d 3d 92 11 9e bd 29 75 5b 3e d5 44 4a bd
       0.034520634 -0.07718195 0.21431412 -0.04938205
000310 a7 bb f3 bd 04 b6 85 3e 6c 2b 3a 3d de 64 57 bd
       -0.11901026 0.2611543 0.045451567 -0.05258643
000320 da e6 08 3d 2c 54 be bd 04 3b 67 3d 00 0e 92 3b
       0.033423282 -0.09293398 0.056452766 0.0044572353
000330 59 a1 05 3e f9 0b ac be dd 31 41 3d 23 44 89 bd
       0.1304983 -0.33602884 0.047166694 -0.06702449
000340 c4 23 c9 3d ca 78 93 3d b8 57 91 3e 82 ac 04 bd
       0.09821275 0.07200773 0.28387237 -0.03239108
000350 f3 93 50 3e b2 11 ee bd 49 3c d2 3e c7 e7 29 3e
       0.20368938 -0.11624469 0.4106162 0.16592322
000360 a4 10 1f bd 5c 81 94 bb 1e c6 2a bd c6 c7 29 3e
       -0.03883423 -0.0045320224 -0.041692846 0.16580114
000370 a5 a1 f8 bc fd 60 03 bd f3 e6 52 bc ec 32 38 3e
       -0.030350516 -0.032074917 -0.012872445 0.17988175
000380 ad 41 5f 3d 88 d4 d1 3d b2 62 e4 3c 44 31 d7 bd
       0.054505993 0.10245615 0.027879093 -0.105074435
000390 fa fa ee 3c 03 e7 9d bd 52 e6 2d 3a f4 35 4d 3c
       0.02917241 -0.077100776 0.00066337467 0.01252507
0003a0 be be 66 bc 5a f1 4e be ad 88 43 3d da 71 46 bd
       -0.014083562 -0.20209256 0.047737766 -0.04844842
0003b0 b2 18 3c 3e 22 97 f7 3d 51 3e f8 bd cd 6a d3 bd
       0.18368796 0.12089373 -0.12121261 -0.10323105
0003c0 41 05 ec 3d 57 fe cc bd b7 24 c7 bd fe 8f b9 3d
       0.115244396 -0.10009449 -0.097238 0.090606675
0003d0 87 42 d8 bc b0 54 fc bc 02 92 1c 3e 0d 26 2e be
       -0.02639891 -0.0308021 0.15290073 -0.17006703
0003e0 a5 a2 3c bd da 56 db 3d 34 ab 7b 3d e3 3c 50 be
       -0.046053547 0.10709925 0.06144257 -0.20335726
0003f0 da 63 1b be f8 86 44 3e 80 a4 a1 be 34 c6 86 3c
       -0.15174809 0.19192111 -0.31570816 0.016451932
