trained_model/CS_LPD_Net_layer_19_ratio_40_lr_0.0001/net_params.pkl (torch_old, 89812 bytes, 4 tensors)

A2.0.weight f4 [32, 1, 3, 3]
0	0x3d2b7340	0.041857958
1	0xbcac5844	-0.021038182
2	0x3d01576d	0.031577516
3	0x3dc71b9b	0.09722062
4	0xbdc9bacd	-0.098500825
5	0x3cb51105	0.022102842
6	0x3db72356	0.08942287
7	0xbd40cae1	-0.04706848
8	0xbe0f7db2	-0.14012793
9	0x3a983ed6	0.0011615406
10	0xbc70e16c	-0.014702182
11	0xbbca2c66	-0.0061698435
12	0x3ba08739	0.0048989323
13	0x3d03c8f3	0.032174062
14	0xbcead657	-0.028666658
15	0xbc7682d0	-0.015045837
16	0xbc9d0722	-0.01916844
17	0x3cd4c0f2	0.02597091
18	0xbc58c4b1	-0.013230489
19	0x3d6ac4da	0.05731664
20	0xbd0902ec	-0.033450052
21	0x3c60e059	0.013725364
22	0x3d21bd27	0.03948703
23	0xbd0eb345	-0.034838933
24	0xbbe1ceba	-0.006891099
25	0xbcaf9a61	-0.021435918
26	0x3b07660d	0.0020660192
27	0xbde90e20	-0.11379647
28	0xbe4ce99b	-0.20010988
29	0xbe294f2c	-0.16534108
30	0x3e6b2b28	0.22965682
31	0x3edb6f28	0.42858243
32	0x3e942d4e	0.28940815
33	0xbddaa6f9	-0.10676379
34	0xbe79ac92	-0.24382237
35	0xbdfe165d	-0.12406609
36	0xbd19fb0c	-0.037592933
37	0xbefc550a	-0.4928363
38	0xbea54efb	-0.3228682
39	0x3c8d05f0	0.017214745
40	0xbce6ba44	-0.02816499
41	0xbd18f20e	-0.037340216
42	0x3c8a7162	0.016899768
43	0x3f06bb61	0.5262967
44	0x3eb82549	0.35965946
45	0xbe6e9692	-0.23299626
46	0xbc6a7439	-0.014309936
47	0x3e7bdb22	0.24595311
48	0x3ec9f9b7	0.3944833
49	0x3d48737e	0.048938267
50	0xbee3fd9f	-0.44529435
51	0xbe3d7ae1	-0.18503906
52	0xbd0d5e30	-0.034513652
53	0x3e5cd55c	0.21565765
54	0xba14ac01	-0.00056713825
55	0xbc436fba	-0.011928493
56	0x3affac5c	0.0019506323
57	0xbdc13b1d	-0.09435103
58	0xbdb46595	-0.08808438
59	0xbd314b6e	-0.043284826
60	0xbd438a0a	-0.047739066
61	0x3e9df4ab	0.3085073
62	0xbca01531	-0.019541355
63	0x3e67c98d	0.2263548
64	0xbede60e6	-0.43433303
65	0x3e7c15c6	0.24617681
66	0xbcec7ad2	-0.028867159
67	0x3d4cb56d	0.04997771
68	0xbd28b616	-0.041189276
69	0xbe4bc969	-0.1990105
70	0x3ec4f4f5	0.38468137
71	0xbe563180	-0.2091732
72	0xbbab6a91	-0.0052312096
73	0x3dd245e6	0.10267238
74	0x3d7127dd	0.058875907
75	0x3d2bfa9d	0.04198705
76	0x3bbac506	0.0056997566
77	0xbcbafdaa	-0.022826035
78	0xbe4a1f9c	-0.1973862
79	0x3c3ee5c6	0.011651462
80	0xbd00d934	-0.03145714
81	0xbd56c996	-0.05243834
82	0x3d49dd45	0.049283285
83	0xbd87fc42	-0.06639911
84	0xbdcb9d8f	-0.09942161
85	0xbe140596	-0.14455256
86	0xbb91685b	-0.004437489
87	0x3e40bf48	0.18822968
88	0x3da59580	0.080851555
89	0x3d898e6e	0.067166194
90	0xbd5ec431	-0.05438632
91	0x3e7297ac	0.2369067
92	0xbe279363	-0.16364817
93	0xbe007324	-0.12543923
94	0x3da55f89	0.080748625
95	0x3c99e8c2	0.018787745
96	0x3d27d7f9	0.040977452
97	0x3d1cbb4f	0.03826457
98	0xbd56c69d	-0.052435506
99	0x3f156999	0.58364254
100	0x3e586203	0.21131139
101	0x3c31906d	0.010837656
102	0x3e082062	0.13293603
103	0xbbcf4279	-0.006325063
104	0xbe011e04	-0.12609106
105	0xbc7e7129	-0.015529909
106	0xbe472b8c	-0.19450206
107	0xbf199d2d	-0.60005456
108	0x3b2ca497	0.002634322
109	0x3af34d77	0.0018562515
110	0xbce01b9f	-0.02735692
111	0x3f06c560	0.5264492
112	0x3aac71ff	0.0013156532
113	0xbcbfe8e2	-0.023426477
114	0xbeb53167	-0.35389253
115	0xbe3d482b	-0.18484561
116	0x3d6e4ece	0.058180623
117	0x3ddb7ac1	0.10716773
118	0x3f06f651	0.527196
119	0x3d61ccd5	0.055126984
120	0xbddb1127	-0.10696631
121	0xbf061b58	-0.52385473
122	0xbd65bbfc	-0.05608748
123	0xbbabb0a2	-0.005239562
124	0xbb75a65c	-0.003748319
125	0x3ae610fc	0.0017552669
126	0x3e87e906	0.2654497
127	0xbd0cdd26	-0.03439059
128	0xbe6acb75	-0.22929175
129	0x3f2d605a	0.67725146
130	0xbd3da196	-0.04629668
131	0xbf1fa738	-0.6236453
132	0x3e27726f	0.16352247
133	0xbd12d47b	-0.03584717
134	0xbe0ccff5	-0.13751204
135	0xbcd151f3	-0.025551772
136	0xbe32c6f9	-0.17458715
137	0x3dbb3c0b	0.09142312
138	0xbcd7eb3c	-0.026357286
139	0xbd98b8c1	-0.07457114
140	0x3e946ca9	0.2898915
141	0x3c103c2a	0.008803407
142	0xbd71e205	-0.05905344
143	0x3dc67ecf	0.096921556
144	0x3e6ac9d8	0.2292856
145	0xbeb4c0dc	-0.3530339
146	0xbe67ae2b	-0.22625034
147	0x3e199d19	0.15001334
148	0xbdcd73d9	-0.10031862
149	0x3e5cb9c1	0.21555234
150	0x3cf3b011	0.029747041
151	0x3cdba504	0.026812084
152	0x3c9e53b9	0.019327031
153	0x3e3e173b	0.18563549
154	0xbe0dbc35	-0.13841327
155	0xbd767cf6	-0.060177766
156	0xbd7a39a1	-0.061090115
157	0x3ea4f20e	0.32215923
158	0x3dec3a6b	0.1153458
159	0xbe4dcad0	-0.20096898
160	0xbc2c017f	-0.010498404
161	0xbdc0f06d	-0.094208576
162	0xbe9c5940	-0.30536842
163	0xbc558df2	-0.013034331
164	0x3e129025	0.143128
165	0x3cf54af2	0.029942963
166	0x3ec559d7	0.38545105
167	0x3ce3703e	0.027763482
168	0x3e61329a	0.21991959
169	0xbdaddb5b	-0.08489104
170	0xbed06982	-0.40705496
171	0x3c5364dc	0.012902465
172	0xbd45481a	-0.048164465
173	0x3d1a1ca0	0.037624955
174	0xbc83f369	-0.016107278
175	0xbf06a658	-0.5259757
176	0x3f097f7e	0.5371016
177	0x3bbf4c3f	0.0058379467
178	0xbd819c6b	-0.063286625
179	0x3d7827e5	0.06058492
180	0xbda7ab64	-0.08186987
181	0xbdb861d5	-0.09003035
182	0x3e3c36a9	0.18380226
183	0x3d97e51c	0.07416746
184	0x3dd9cd35	0.10634843
185	0x3eb30eb9	0.3497217
186	0x3d1d35ee	0.03838151
187	0xbeadbf29	-0.33934906
188	0xbe74e72a	-0.23916307
189	0x3df3f642	0.11912204
190	0xbe6e93b4	-0.23298532
191	0x3dca020d	0.098636724
192	0x3e6c136f	0.23054288
193	0xbec3cf46	-0.38244075
194	0x3e38ff57	0.18066154
195	0x3e38a38a	0.18031135
196	0xbed02979	-0.4065664
197	0x3e58d51f	0.21175049
198	0xbdd75b11	-0.105154164
199	0x3bed6774	0.0072449986
200	0x3dd4c1f3	0.103885554
201	0xbe102998	-0.14078367
202	0x3c913f25	0.017730305
203	0x3d8c3e32	0.068478
204	0xbc2c78be	-0.010526834
205	0x3c2c56db	0.010518755
206	0x3c9abab3	0.018887853
207	0xbc09d1f1	-0.00841187
208	0xbc3bd319	-0.011463904
209	0x3efb56f4	0.49089777
210	0xbd05b6ff	-0.03264522
211	0xbefba507	-0.49149343
212	0x3d2d21d4	0.04226859
213	0x3d206170	0.039155424
214	0xbc5b723e	-0.013393937
215	0xbc92f953	-0.017941153
216	0xbc2301a4	-0.009949122
217	0xbe55fa6c	-0.2089631
218	0xbefc1a4a	-0.49238807
219	0x3e0c2222	0.13684896
220	0xbd98bbf0	-0.07457721
221	0xbdd03e54	-0.10168138
222	0x3f2ac7e8	0.6671128
223	0x3db5a7e2	0.08869912
224	0xbbe9747a	-0.007124481
225	0xbbb8ffa8	-0.005645711
226	0x3d352685	0.04422619
227	0x3bddb141	0.006765515
228	0x3d87596e	0.06608854
229	0xbea41b4b	-0.32052073
230	0xbb128ec9	-0.0022362939
231	0xbbef7e4d	-0.0073087574
232	0x3d676f6f	0.056502756
233	0x3bd4f37e	0.006498753
234	0x3c0b93b3	0.008519101
235	0x3ebef465	0.37295833
236	0xbcb9166f	-0.022593705
237	0x3ce8531a	0.028359938
238	0xbe7da059	-0.24768199
239	0xbd83b544	-0.06431058
240	0xbcec8ac2	-0.028874759
241	0x3d1b50ca	0.037918843
242	0x3d1e2928	0.03861347
243	0xbd2b5386	-0.0418277
244	0x3a5cc264	0.00084213004
245	0xbcbb17e8	-0.022838548
246	0x3d8328cd	0.064042665
247	0x3d1df25c	0.03856121
248	0x3cf7a605	0.030230531
249	0x3b2365e2	0.0024932553
250	0xbd736db2	-0.059430785
251	0x3c3e7bbf	0.011626183
252	0x3d7014f9	0.05861375
253	0x3de69030	0.1125797
254	0x3cff992e	0.031200971
255	0xbcb49799	-0.022044944

B.0.weight f4 [32, 32, 3, 3]
0	0xbebae39c	-0.36501777
1	0x3ea3d9d9	0.32002142
2	0x3e10d885	0.14145096
3	0xbec511df	-0.38490197
4	0x3d6e3c50	0.058162987
5	0x3ee964f3	0.4558483
6	0x3e6ece4d	0.23320885
7	0xbeb5cd7c	-0.35508335
8	0xbf80ef07	-1.0072945
9	0xbdccba24	-0.09996441
10	0x3e89909e	0.26868147
11	0x3eba7547	0.364176
12	0xbf219596	-0.63118875
13	0xbea2e38c	-0.3181423
14	0xbce850f2	-0.02835891
15	0xbeaaf515	-0.33390108
16	0x3ebe2c07	0.37142965
17	0x3e9765b0	0.2956977
18	0xbe6b6bd4	-0.22990352
19	0x3ef7550b	0.4830707
20	0x3e997c50	0.29977655
21	0xbf00ffd8	-0.50390387
22	0x3e6e4145	0.23267086
23	0x3c81e7e5	0.015857646
24	0xbe5e310a	-0.21698394
25	0x3ee5bb16	0.44869298
26	0x3e3e7aca	0.18601528
27	0x3e86533c	0.26235378
28	0xbe5822dd	-0.2110705
29	0x3ef8fefe	0.48632044
30	0xbc35570c	-0.011068117
31	0xbecff6b4	-0.40617907
32	0x3ee41a4f	0.44551322
33	0xbda1d6fb	-0.079023324
34	0x3e3b6686	0.18300828
35	0x3ebbefe3	0.36706457
36	0x3d4d47e7	0.0501174
37	0xbba3e1af	-0.005001269
38	0x3c1c28d0	0.009531215
39	0xbe39d2e1	-0.1814685
40	0xbe27c01a	-0.16381875
41	0x3d8e693f	0.06953668
42	0xbd1b4722	-0.037909634
43	0x3d574893	0.052559447
44	0x3d00c4ae	0.03143757
45	0x3da76093	0.08172717
46	0xbcad8ccb	-0.0211853
47	0x3c203392	0.00977792
48	0x3d863697	0.06553381
49	0xbee44070	-0.44580412
50	0x3c8f94c9	0.017527001
51	0x3e5b1c15	0.21397431
52	0x3bf4fcc1	0.0074764197
53	0x3e8137aa	0.2523778
54	0xbf048f54	-0.517812
55	0x3dbcdf21	0.09222246
56	0xbe987f1d	-0.2978448
57	0xbc304429	-0.010758438
58	0x3ec90c25	0.39267078
59	0xbe7d6608	-0.24745953
60	0x3c799f0c	0.015235674
61	0x3b361e3c	0.0027789017
62	0xbd62b56d	-0.055348802
63	0x3d5cc9e1	0.053903464
64	0xbdb3449f	-0.08753323
65	0xbd15e6f9	-0.036597226
66	0x3df7fbad	0.1210855
67	0x3e6cc35f	0.23121403
68	0xbe04da99	-0.12974013
69	0x3e4f52e0	0.20246458
70	0xbd5f7ca9	-0.054562245
71	0xbdef39f4	-0.116809756
72	0x3ec1ecc8	0.37875962
73	0x3f0c116e	0.54714096
74	0xbba5b1a1	-0.0050565754
75	0x3f4c4901	0.79798895
76	0x3def7b38	0.11693424
77	0xbcac6380	-0.021043539
78	0xbe3e1965	-0.18564375
79	0xbd8d0762	-0.06886174
80	0xbf0d2f14	-0.5514996
81	0xbe15fbbf	-0.14646815
82	0x3e51f1d1	0.20502402
83	0x3de2926e	0.110630855
84	0xbe534194	-0.20630485
85	0x3e59d6be	0.21273324
86	0x3d147748	0.036246568
87	0x3e3e1bc8	0.18565285
88	0x3dba03f4	0.09082785
89	0x3d3e05d3	0.046392273
90	0xbdaf9b17	-0.08574503
91	0x3dcb39b2	0.09923114
92	0x3da5ba39	0.0809216
93	0xbe9eb343	-0.3099614
94	0x3e5cd5b3	0.21565895
95	0x3ebafa94	0.365193
96	0xbe4630f5	-0.19354613
97	0x3e09ba91	0.13450076
98	0x3c239681	0.009984613
99	0xbdefffd4	-0.11718717
100	0xbe0a55d9	-0.13509311
101	0x3cc123a1	0.02357656
102	0x3d5cb871	0.053886835
103	0xbdef2165	-0.116762914
104	0x3dab5951	0.08366645
105	0xbcf1c35f	-0.029512106
106	0xbe157165	-0.14594038
107	0x3d4f6359	0.050631855
108	0x3ebb0226	0.36525077
109	0xbe466321	-0.19373752
110	0xbe58eb20	-0.21183443
111	0x3d8f599a	0.06999512
112	0xbe4bca97	-0.199015
113	0xbd7e4881	-0.062080864
114	0x3e4744d6	0.19459853
115	0x3dd8383b	0.105576
116	0x3e1bdc7f	0.15220831
117	0x3cdc0b70	0.026860923
118	0x3e47c39f	0.19508217
119	0x3d31a374	0.04336877
120	0xbeb36251	-0.35035947
121	0xbe8e2a3a	-0.2776659
122	0xbe56d24e	-0.20978662
123	0xbccd88b8	-0.025089607
124	0xbe0aaa7e	-0.135416
125	0xbe7fe8b9	-0.2499112
126	0xbe4b22cf	-0.19837497
127	0x3a76248c	0.0009389601
128	0xbd5bebe3	-0.053691756
129	0x3dffde42	0.12493564
130	0x3e270f3c	0.16314405
131	0x3c516050	0.01277931
132	0xbda90380	-0.08252621
133	0xbcb656ed	-0.022258246
134	0xbdb75852	-0.08952393
135	0xbe59595b	-0.21225493
136	0xbd8eddcd	-0.06975899
137	0x3e454105	0.19263084
138	0xbe9e9123	-0.30970106
139	0xbd439468	-0.047748953
140	0xbd0b6297	-0.03402957
141	0xbdd68703	-0.1047497
142	0x3e1b7bbd	0.15183921
143	0xbe155bcc	-0.14585799
144	0xbd9a0fbc	-0.07522532
145	0xbd2b512e	-0.041825466
146	0xbf1b2a7d	-0.60611707
147	0xbd93fc84	-0.07225898
148	0x3ee60fc0	0.4493389
149	0xbec20f0b	-0.37902102
150	0x3dd087df	0.10182165
151	0x3e249dd9	0.16075839
152	0xbe4b349c	-0.19844288
153	0x3e8398c3	0.25702485
154	0x3ec0f731	0.37688592
155	0x3e3d16fe	0.18465802
156	0xbdbd82dd	-0.09253476
157	0xbe269109	-0.16266264
158	0xbe80d3ae	-0.251615
159	0xbe98f578	-0.29874778
160	0x3e06e2cd	0.13172455
161	0x3d0e1688	0.034689456
162	0x3d0bedd0	0.034162343
163	0xbe00ddb7	-0.12584578
164	0x3d1a2e8c	0.037642047
165	0xbd496802	-0.049171455
166	0x3be04416	0.006844054
167	0xbe172237	-0.14759146
168	0x3d8b039d	0.067877986
169	0xbde5e573	-0.112254046
170	0x3c26aabd	0.010172543
171	0xbea88273	-0.32912025
172	0x3e3e225a	0.18567792
173	0xbe0a431c	-0.13502163
174	0xbe8798f8	-0.26483893
175	0x3d2a03a2	0.04150737
176	0x3cc01b90	0.023450643
177	0xbf04b9b3	-0.51845855
178	0xbdc2c8a9	-0.09510929
179	0xbe06a209	-0.13147749
180	0xbe290291	-0.16504885
181	0xbbcada9a	-0.00619061
182	0xbe8beb4d	-0.27327958
183	0x3d87a966	0.06624107
184	0xbd5cf12f	-0.053940948
185	0xbd75953f	-0.059956785
186	0xbe0878b6	-0.13327298
187	0xbe238197	-0.15967403
188	0x3cff7992	0.031185899
189	0x3d8f4d16	0.06997125
190	0xbde54c4f	-0.11196195
191	0xbe8b55dc	-0.27213943
192	0x3e4cd873	0.20004444
193	0x3df2d672	0.118573084
194	0x3e765d2b	0.24058978
195	0xbda9d65d	-0.0829284
196	0x3dcb3b50	0.09923422
197	0xbdb90776	-0.09034626
198	0xbca437d1	-0.020046147
199	0xbe7fb6ed	-0.24972124
200	0xbf137978	-0.5760722
201	0x3e11ba1d	0.14231153
202	0xbfa04a15	-1.2522608
203	0x3dc1b98a	0.09459217
204	0x3e9cd1e0	0.30628872
205	0x3e4fb26d	0.20282908
206	0x3e046143	0.12927727
207	0xbec81eab	-0.39085898
208	0xbd0ee800	-0.03488922
209	0x3e44ea42	0.19229987
210	0x3d2a6430	0.041599452
211	0xbe20256d	-0.15639277
212	0x3e801d86	0.25022525
213	0x3d816b24	0.063192636
214	0x3e354d9a	0.17705384
215	0x3ea0a4f1	0.3137584
216	0xbe0278e6	-0.12741432
217	0xbdbb384d	-0.09141598
218	0x3cbfd935	0.023419002
219	0xbdc613ba	-0.09671731
220	0xbd31f66b	-0.043447893
221	0x3d1e7159	0.038682315
222	0xbdf9cc5c	-0.121971816
223	0x3b2ae17b	0.0026074338
224	0xbd32113e	-0.043473475
225	0xbf7c6263	-0.98587626
226	0x3e7f48ed	0.24930163
227	0xbf8cebbd	-1.1009442
228	0xbef8ffc9	-0.4863265
229	0x3dc17da0	0.09447789
230	0x3f48bc1d	0.7841204
231	0xbf142dc1	-0.57882315
232	0x3f1866de	0.5953196
233	0xbf4f0e51	-0.8088122
234	0xbe8dfe32	-0.27732998
235	0xbe63af68	-0.22234881
236	0xbddfc68b	-0.10926541
237	0x3e879d22	0.2648707
238	0x3f049caf	0.5180158
239	0x3de50a88	0.11183649
240	0xbaf1f263	-0.0018459078
241	0x3cb1d18f	0.02170637
242	0xbe420e81	-0.18950845
243	0x3e6e02ac	0.23243207
244	0x3ea1b8e2	0.31586367
245	0x3e44d844	0.19223124
246	0x3cffa583	0.031206852
247	0x3e953247	0.2913992
248	0x3e823c59	0.25436667
249	0x3e09e5e5	0.13466604
250	0x3e69b344	0.2282229
251	0x3e0c2331	0.136853
252	0xbe2b1af8	-0.16709507
253	0x3ec32b43	0.38118944
254	0x3e596070	0.21228194
255	0xbe11da58	-0.14243448

AT2.0.weight f4 [1, 32, 3, 3]
0	0xbe92a0fb	-0.28638443
1	0xbdc59ecd	-0.096494295
2	0x3e213a28	0.15744841
3	0x3c8af9ef	0.01696488
4	0xbe2d33f1	-0.16914345
5	0x3e44ed1f	0.1923108
6	0x3d3d453d	0.04620861
7	0x3c85cde9	0.016333537
8	0x3d98cb48	0.07460648
9	0x3ea522a2	0.32252985
10	0xbe50ead0	-0.20402074
11	0xbd694d36	-0.0569584
12	0xbe9fb0d1	-0.31189588
13	0x3f0abb1b	0.5419175
14	0x3e0e12c8	0.13874352
15	0xbe4403fa	-0.19142142
16	0xbe98a8af	-0.29816195
17	0x3d937358	0.071997344
18	0x3bb97e17	0.005660783
19	0x3dd471f9	0.10373301
20	0x3d8375e8	0.06418973
21	0x3eab84b3	0.3349968
22	0xbe8d0285	-0.27540985
23	0xbd0f12ad	-0.03492992
24	0x3e0d5050	0.13800168
25	0xbeb1b94e	-0.3471169
26	0xbac46a1f	-0.001498524
27	0x3d80b2a3	0.06284072
28	0x3e02371b	0.12716334
29	0x3d583c59	0.052791927
30	0xbe038f27	-0.12847577
31	0xbe7ddc9e	-0.2479119
32	0xbdc32dcd	-0.0953022
33	0x3d9c01c1	0.07617522
34	0x3de9d68b	0.11417874
35	0x3d4f3d30	0.050595462
36	0x3e118d6b	0.14214103
37	0x3e587ce7	0.21141396
38	0x3cf92214	0.030411758
39	0xbbfa6827	-0.0076418105
40	0xbca50d74	-0.020148017
41	0x3a8432ad	0.0010085903
42	0xbe100cb8	-0.14067352
43	0xbe4fb03d	-0.20282073
44	0xbcbe8ea1	-0.02326137
45	0xbdf1884b	-0.11793574
46	0x3ba7233c	0.005100636
47	0x3dde260b	0.108471
48	0x3e86cd33	0.2632843
49	0xbc95056c	-0.018191062
50	0xbe6a5762	-0.22884896
51	0xbe13cc0b	-0.14433305
52	0x3c30195b	0.010748233
53	0x3e057a31	0.13034894
54	0xbc17df7c	-0.009269591
55	0x3ec4b1cf	0.38416907
56	0xbd8fe86e	-0.07026754
57	0xbc532903	-0.012888196
58	0xbd9e586f	-0.07731711
59	0xbe20d1c2	-0.15705016
60	0xbc19ea7f	-0.009394287
61	0xbc0ad5ac	-0.008473795
62	0xbbd1ad40	-0.006398827
63	0xbdeb22d8	-0.11481255
64	0x3e72edc6	0.23723516
65	0xbe022b37	-0.12711798
66	0xbd315c0b	-0.04330067
67	0x3d001f3c	0.031279787
68	0xbcd0915f	-0.025459943
69	0x3e28e722	0.1649442
70	0xbe872d89	-0.26401928
71	0x3e0a0abc	0.13480657
72	0xbc133fb9	-0.008987361
73	0x3c331294	0.010929722
74	0xbe410257	-0.18848549
75	0x3bd27b94	0.006423423
76	0xbd92c678	-0.07166761
77	0xbc985662	-0.018595878
78	0x3d890c26	0.0669177
79	0x3dc071fd	0.093967415
80	0x3cc6985a	0.024242569
81	0xbd595927	-0.053063538
82	0xbdd37988	-0.103259146
83	0xbe41dc8b	-0.18931787
84	0xbb9f8b95	-0.0048689344
85	0x3e3b55fc	0.18294519
86	0x3de89c00	0.1135788
87	0x3d39842e	0.045292072
88	0xbc052bc3	-0.008128109
89	0xbab582d0	-0.0013848189
90	0x3d4eeee1	0.05052078
91	0xbd4c1c44	-0.049831644
92	0xbc9e2114	-0.019302882
93	0x3bfbd06f	0.0076847593
94	0xbdbf44f9	-0.09339327
95	0x3e53ce27	0.2068411
96	0x3e39825f	0.18116139
97	0xbea522b3	-0.32253036
98	0x3d872a38	0.065998495
99	0xbe591bf0	-0.21202064
100	0xbd91ebc3	-0.07125046
101	0xbc8c055a	-0.017092396
102	0xbd378ef9	-0.044814084
103	0x3c142d00	0.009043932
104	0x3d2ac74f	0.04169398
105	0x3bbb07ac	0.0057077017
106	0x3d923803	0.0713959
107	0x3e4c24a8	0.19935858
108	0x3c97bb7b	0.018522015
109	0xbdc920bb	-0.09820696
110	0xbe3169e9	-0.17325558
111	0xbc6c1601	-0.014409543
112	0xbc334e9c	-0.010944035
113	0x3e9a9a80	0.30196
114	0xbc668699	-0.0140701765
115	0xbc563690	-0.013074532
116	0x3ce91223	0.028451031
117	0xbaa5114f	-0.0012593659
118	0xbd09e989	-0.033669982
119	0xbc2c0528	-0.010499276
120	0xbcfaa5ea	-0.030596692
121	0xbed5ffc8	-0.41796708
122	0xbd8d4d2d	-0.06899486
123	0x3d420422	0.047367223
124	0x3ec6a650	0.3879876
125	0x3d9ad336	0.075598165
126	0x3d848471	0.06470574
127	0x3b90aa10	0.0044148043
128	0xbd7c3a29	-0.061578903
129	0x3e63f393	0.22260885
130	0x3b9a329b	0.0047057397
131	0xbe5e1e77	-0.21691309
132	0x3dc12a7b	0.09431931
133	0xbb79869d	-0.003807462
134	0xbdc94ea3	-0.09829452
135	0xbd7b4d12	-0.061352797
136	0x3d582ddf	0.05277812
137	0x3cdc33bd	0.02688014
138	0xbe4267f9	-0.18984975
139	0x3c402227	0.011726893
140	0x3d581162	0.052750953
141	0xbc6fc3e6	-0.014634108
142	0x3df0d340	0.11759043
143	0x3da8e227	0.0824626
144	0x3d18ef7e	0.037337773
145	0x3cf9e56d	0.030504907
146	0x3d06ee40	0.032942057
147	0x3da5ecc4	0.081018
148	0xbd93e386	-0.07221131
149	0x3d939f07	0.072080664
150	0xbe19ed1e	-0.1503186
151	0xbe5aa28a	-0.21351066
152	0x3de2e6b5	0.1107916
153	0x3d291462	0.041279204
154	0x3d610027	0.054931786
155	0x3e06a173	0.13147525
156	0xbdc083c1	-0.0940013
157	0xbe399b98	-0.1812576
158	0x3d16d064	0.03681983
159	0xbb77607a	-0.0037746713
160	0x3caf94c6	0.021433245
161	0xbddcb717	-0.10777109
162	0x3e2614c7	0.16218863
163	0x3c370b92	0.011172192
164	0xbdad8c71	-0.08474053
165	0xbcdf820a	-0.027283687
166	0xbdf71302	-0.12064172
167	0xbcdb178e	-0.02674463
168	0xbd88d1aa	-0.06680615
169	0xbb748b82	-0.0037314598
170	0x3dd50b73	0.104025744
171	0xbd2a1f7d	-0.041533936
172	0x3d02b258	0.031908363
173	0x3c1f399e	0.009718327
174	0xbec701fc	-0.388687
175	0x3ec72f2e	0.38903183
176	0x3c876339	0.016526805
177	0xbc3a534f	-0.011372401
178	0x3bc4c919	0.006005418
179	0x3b4b2743	0.0030998744
180	0xbe0b0a9e	-0.13578269
181	0xbe416a54	-0.18888217
182	0x3c9c2877	0.019062264
183	0x3e4f43f1	0.20240761
184	0x3d679d39	0.056546424
185	0x3d1857f7	0.037193265
186	0x3e02fea9	0.12792458
187	0xbd533437	-0.051563468
188	0xbd2085b7	-0.03919002
189	0xbdcb94a3	-0.099404596
190	0x3e2dbb67	0.1696602
191	0xbd8f2e44	-0.06991246
192	0xbda2f52c	-0.07956919
193	0x3e488348	0.1958133
194	0xbde71cce	-0.11284791
195	0xbd1ba7e5	-0.038001914
196	0x3dcd1844	0.10014394
197	0xbd355ab5	-0.044275958
198	0xbc941df3	-0.018080687
199	0xbd089fe9	-0.033355627
200	0x3c31ccad	0.010852021
201	0xbe12f7d3	-0.1435235
202	0x3c3d22e7	0.011543966
203	0x3e697f80	0.22802544
204	0xbe39b76b	-0.18136375
205	0x3c1d962f	0.009618326
206	0x3e30ad57	0.17253624
207	0xbc46a49d	-0.012124208
208	0xbbf2c4ff	-0.0074087377
209	0x3ca3dbed	0.02000233
210	0x3b201436	0.002442611
211	0xbe85534c	-0.26040113
212	0xbd01d0ac	-0.031693146
213	0x3e95da6d	0.29268208
214	0xbb92b0e9	-0.0044766557
215	0x3b8187e7	0.0039529684
216	0x3be8db26	0.0071062027
217	0xbc8b49b2	-0.017002914
218	0xbe4fd724	-0.20296913
219	0x3d15a6ed	0.036536146
220	0x3c4ccf83	0.0125006465
221	0xbd3d22a1	-0.046175603
222	0x3e0876d7	0.13326584
223	0x3d6a2824	0.057167187
224	0x3c27598b	0.01021422
225	0x3d92277b	0.071364366
226	0x3e14fb60	0.14549017
227	0x3d487660	0.048941016
228	0x3dcf47af	0.101210944
229	0xbe584353	-0.21119432
230	0x3e654d8c	0.22392863
231	0x3db1e989	0.086871214
232	0x3e13bf07	0.1442834
233	0x3d431ad8	0.047633022
234	0x3c96173b	0.018321624
235	0xbc84033c	-0.016114824
236	0x3d044206	0.032289527
237	0x3d9bb427	0.07602721
238	0x3e392d03	0.18083577
239	0xbcdf1cc1	-0.02723539
240	0x3d72fa17	0.059320536
241	0xbe9a8f16	-0.3018729
242	0xbd60c232	-0.0548727
243	0xbdefc054	-0.117066056
244	0x3ef98957	0.48737594
245	0xbd2f32bf	-0.042773005
246	0xbe5b57dc	-0.21420234
247	0xbd9205b5	-0.07129995
248	0xbeeb78d1	-0.45990613
249	0x3d64e023	0.055877816
250	0x3dd1a2a8	0.10236102
251	0x3e940295	0.2890822
252	0x3e3f4c9c	0.18681568
253	0x3e644a04	0.2229386
254	0x3d0e611c	0.03476058
255	0xbcda8b47	-0.02667774

BT.0.weight f4 [32, 32, 3, 3]
0	0x3e0e649f	0.13905571
1	0x3b6c9cbe	0.0036104168
2	0x3d1ad9b0	0.03780526
3	0xbdb65396	-0.089026615
4	0xbe11e287	-0.1424657
5	0xbdde90fb	-0.108674966
6	0x3db35aec	0.08757576
7	0xbea73e35	-0.32664648
8	0x3e4dde6c	0.20104378
9	0x3e012dd9	0.12615146
10	0xbd31f740	-0.043448687
11	0xbe4408ab	-0.19143932
12	0x3d842476	0.06452267
13	0x3cf643b5	0.030061582
14	0xbe2b4eac	-0.1672923
15	0x3e22107d	0.15826602
16	0xbdec4de5	-0.11538295
17	0x3de10894	0.10987964
18	0xbea8b23f	-0.3294849
19	0xbea793b3	-0.32729873
20	0xbe1c4995	-0.15262444
21	0x3d3d77f7	0.046256986
22	0x3e4997c9	0.19686808
23	0x3d94e65a	0.072704986
24	0xbd932450	-0.071846604
25	0xbd44ad5f	-0.048016902
26	0xbcfe0942	-0.031010274
27	0x3d146c48	0.036236078
28	0x3bef0e8e	0.007295436
29	0x3d684383	0.05670501
30	0x3da71ba1	0.08159567
31	0x3d96164d	0.07328472
32	0xbb28c1c6	-0.0025750264
33	0xbd288fa6	-0.04115262
34	0xbde6afe7	-0.112640195
35	0x3e2a601c	0.16638225
36	0x3d7a4e8b	0.06111006
37	0x3cd1e57b	0.02562212
38	0xbbeaad8d	-0.007161802
39	0x3daac7da	0.083389
40	0xbd4428b6	-0.047890387
41	0xbce08a78	-0.027409777
42	0xbc8d32e0	-0.017236173
43	0xbe02add5	-0.12761624
44	0x3d59ea33	0.053201865
45	0x3d0769bb	0.033059817
46	0xbd7595f8	-0.059957474
47	0xbd395166	-0.045243643
48	0xbb926ca7	-0.004468519
49	0xbaaec5ca	-0.0013334092
50	0x3cb4c33f	0.022065757
51	0x3ab9b635	0.0014168682
52	0x3c3462b7	0.011009864
53	0xbbe8782d	-0.007094404
54	0x3a849a80	0.0010116845
55	0x3d529b89	0.05141786
56	0x3c0b4ca5	0.00850216
57	0x3deb02c9	0.114751406
58	0xbdc1d95f	-0.09465288
59	0x3d19021d	0.03735553
60	0xbd2223c6	-0.039584897
61	0x3d7ef1dd	0.062242378
62	0x3e13040b	0.14357011
63	0x3c2c5df6	0.010520449
64	0xbcfe8b85	-0.031072387
65	0xbd92c18a	-0.07165821
66	0xbca73227	-0.020409657
67	0x3d9945d1	0.074840195
68	0xbd241c71	-0.040066186
69	0xbdfb3f2c	-0.122679085
70	0xbd6ebada	-0.058283664
71	0xbd8ea139	-0.069643445
72	0x3e10049a	0.14064255
73	0x3cfd93f7	0.030954344
74	0xbdc134a1	-0.09433866
75	0x3e350ed8	0.17681444
76	0xbeb00702	-0.34380347
77	0xb996a17e	-0.0002873055
78	0xbe76515a	-0.2405447
79	0xbcfc618e	-0.030808236
80	0xbe0dd0be	-0.1384916
81	0x3e2875ee	0.16451237
82	0x3e9cd1c7	0.30628797
83	0xbe1933a7	-0.1496111
84	0xbe6ce7c1	-0.23135282
85	0x3e736482	0.2376881
86	0x3e325a24	0.17417198
87	0xbed3812f	-0.41309497
88	0xbe5db3f2	-0.21650675
89	0x3ca15618	0.019694373
90	0x3e1ee36b	0.1551644
91	0x3e228894	0.15872413
92	0x3e6edc21	0.2332616
93	0x3ec5244b	0.38504252
94	0xbe8c0bab	-0.27352652
95	0xbdd9ff91	-0.106444485
96	0xbc4d461a	-0.012528921
97	0xbd07abe6	-0.03312292
98	0xbdef3005	-0.11679081
99	0xbd84d2f0	-0.06485546
100	0xbe1c5bdd	-0.15269418
101	0x3e312016	0.17297396
102	0xbdd8b5fc	-0.10581586
103	0x3c9be283	0.019028908
104	0x3e07cd24	0.13261849
105	0xbe175656	-0.14779028
106	0x3e85fea2	0.26170832
107	0x3e039d98	0.12853086
108	0xbcaa53e8	-0.020791963
109	0x3d7a4035	0.06109639
110	0x3e0c9873	0.1373003
111	0x3d08e9a0	0.033425927
112	0x3d9eb1b7	0.0774874
113	0x3dbe421b	0.09289952
114	0x3d9c7e2d	0.076412536
115	0x3e08e2a4	0.13367707
116	0x3e22e9d7	0.15909515
117	0xbea55448	-0.32290864
118	0xbc4cde23	-0.012504133
119	0xbd94a986	-0.072588965
120	0xbde75689	-0.11295802
121	0xbe1bdb72	-0.1522043
122	0x3e06844a	0.13136402
123	0xbe69dfe5	-0.22839315
124	0xbe1f2dfe	-0.15544888
125	0xbe9ea003	-0.30981454
126	0x3cda9a0c	0.026684783
127	0xbc85a7e9	-0.016315417
128	0xbbd21073	-0.0064106523
129	0x3e559197	0.2085632
130	0x3d8033a5	0.062598504
131	0xbdd063bc	-0.10175273
132	0xbdf9248e	-0.121651754
133	0xbde507b7	-0.11183112
134	0xbe1cb95d	-0.15305085
135	0x3e6f1ce5	0.23350866
136	0x3d85be5b	0.06530448
137	0x3cf90ec9	0.030402558
138	0x3c4d07c3	0.012514058
139	0xbd44c0a3	-0.048035275
140	0x3deee6d2	0.11665119
141	0xbd3505c1	-0.04419494
142	0x3d6a1dc6	0.0571573
143	0x3dfd4373	0.123663805
144	0xbe2e6ba0	-0.17033243
145	0xbda197da	-0.078902915
146	0xbb6a73e4	-0.0035774643
147	0xbc3f776a	-0.011686185
148	0x3e82c1e3	0.2553855
149	0xbd610d37	-0.054944243
150	0xbe4e9e14	-0.2017749
151	0xbea07754	-0.3134104
152	0xbc6788ee	-0.014131768
153	0x3db00e5e	0.0859649
154	0x3e2678a5	0.1625696
155	0xbed1fbbb	-0.41012368
156	0x3ca5138e	0.020150926
157	0x3e9ce142	0.30640608
158	0xbe3b33e8	-0.1828152
159	0xbedaeb98	-0.4275787
160	0xbe6584ae	-0.22413895
161	0xbebbdb2e	-0.36690658
162	0x3d314b72	0.04328484
163	0x3e3e2550	0.18568921
164	0x3d509bee	0.050929956
165	0x3cfc7d13	0.030821359
166	0xbda2ace0	-0.079431295
167	0xbd76edbd	-0.06028532
168	0xbde4624c	-0.11151561
169	0x3c9d957a	0.019236315
170	0x3bbafb0f	0.005706198
171	0xbd83d6c2	-0.06437446
172	0x3dfc3680	0.123150826
173	0x3e1be2d6	0.1522325
174	0xbf00ebae	-0.5035962
175	0x3e478fa7	0.19488393
176	0xbd674e3b	-0.05647109
177	0xbece7a38	-0.4032762
178	0x3e90d949	0.28290775
179	0x3e336ac2	0.17521194
180	0x3d901520	0.07035279
181	0x3eed96d3	0.46404132
182	0x3e33da17	0.17563663
183	0x3e6cf55f	0.23140477
184	0xbce182e3	-0.027528232
185	0xbeaff74a	-0.34368354
186	0xbeb94baf	-0.36190554
187	0xbee1ceb5	-0.44103017
188	0xbede9900	-0.43476105
189	0x3d62d289	0.055376563
190	0x3e2eebdf	0.17082165
191	0x3d47cbcf	0.04877835
192	0x3cd3e548	0.025866166
193	0xbe401aca	-0.18760219
194	0xbd865220	-0.06558633
195	0xbe3b9a97	-0.1832069
196	0x3d074a95	0.03303011
197	0x3c8a88ea	0.016910989
198	0x3dab1b79	0.08354849
199	0x3e417839	0.18893518
200	0x3cbd6e81	0.023123981
201	0xbddeb153	-0.10873666
202	0xbe0bbc73	-0.13646106
203	0xbcb4beca	-0.022063632
204	0xbcd4cb9e	-0.025975998
205	0x3eae68d7	0.3406436
206	0xbdef8f75	-0.11697284
207	0xbed06461	-0.40701583
208	0x3eb6870b	0.35649905
209	0xbe697fcc	-0.22802657
210	0x3e7547f8	0.23953235
211	0x3f0828fd	0.53187543
212	0xbea5162f	-0.32243487
213	0x3ea172b0	0.31532812
214	0x3e2e19e9	0.17002071
215	0x3d8d4e56	0.06899707
216	0xbc81bbf4	-0.015836693
217	0x3d491ba5	0.04909863
218	0xbd04cb37	-0.032420363
219	0xbdae325f	-0.08505701
220	0x3dd69e93	0.104794644
221	0x3d6c495f	0.05768716
222	0xbe4ba2ef	-0.19886373
223	0x3dc2835c	0.09497711
224	0xbdfef3b6	-0.12448828
225	0x3c8c0ba6	0.017095398
226	0x3e001d17	0.12511097
227	0x3d80cf21	0.06289507
228	0xbd1f1efe	-0.038847916
229	0xbdc160f6	-0.09442322
230	0xbdcb0698	-0.09913367
231	0xbe07656f	-0.13222288
232	0x3dee00ca	0.11621244
233	0xbbcfe4f3	-0.0063444315
234	0x3dff774c	0.12473926
235	0x3df89f2d	0.12139735
236	0x3e1ba5d6	0.1519998
237	0xbca90e6f	-0.020636765
238	0x3baa0944	0.005189093
239	0x3d1fe254	0.039034203
240	0xbbbc101c	-0.005739225
241	0x3e012b64	0.12614208
242	0x3e9651f4	0.293594
243	0xbc659354	-0.014012177
244	0xbd7ce641	-0.061743025
245	0xbd3015ae	-0.042989425
246	0xbd9cc814	-0.076553494
247	0x3dd2677a	0.10273643
248	0x3dbdeadd	0.09273312
249	0x3cd756bd	0.026286477
250	0xbcbbe4bf	-0.022936223
251	0x3cd63efa	0.026153076
252	0x3dafe65f	0.08588862
253	0x3c9fc801	0.019504549
254	0xbd293943	-0.041314375
255	0x3dd791d2	0.1052586
