trained_model/CS_LPD_Net_layer_19_ratio_25_lr_0.0001/net_params.pkl (torch_old, 90960 bytes, 4 tensors)

A2.0.weight f4 [32, 1, 3, 3]
0	0x3c7953a8	0.015217699
1	0xbd793b7a	-0.060847737
2	0x3e1bbcc7	0.15208732
3	0x3e0cf45a	0.13765088
4	0xbd1b1eeb	-0.037871283
5	0xbbd8ba14	-0.006613979
6	0xbe65329e	-0.2238259
7	0xbc909aac	-0.017651878
8	0xbcb5e3c1	-0.022203328
9	0xbdc7cef8	-0.09756273
10	0x3d587517	0.05284604
11	0x3d540de2	0.051771052
12	0xbcc10f8c	-0.023566984
13	0x3d677a1b	0.056512933
14	0xbc0b1816	-0.008489629
15	0x3d26b37c	0.040698513
16	0x3babd531	0.0052439203
17	0xbd00f499	-0.031483267
18	0x3deb19cc	0.1147953
19	0x3d7eb373	0.062182855
20	0xb761da07	-1.34618085e-05
21	0xbd784017	-0.060607996
22	0xbe515aad	-0.20444746
23	0x3e0f47b5	0.13992198
24	0xbd186c4d	-0.03721266
25	0x3d5885d0	0.05286199
26	0xbd8adaa9	-0.06779987
27	0xbcdd45f0	-0.027010888
28	0x3d5293a1	0.05141032
29	0xbd274518	-0.040837377
30	0xbdf36b8d	-0.11885748
31	0xbdfd4c23	-0.123680376
32	0x3b0b4054	0.002124806
33	0x3d668435	0.056278426
34	0xbcafbbc5	-0.02145184
35	0x3df2f228	0.11862594
36	0xbcc6ca49	-0.024266379
37	0x3ca8e0c6	0.020614993
38	0xbd7ee931	-0.062234107
39	0xbc82171c	-0.01588016
40	0x3be72592	0.0070540393
41	0xbc6c1d83	-0.014411333
42	0x3d9ea598	0.07746428
43	0xbddcac0b	-0.10775002
44	0xbd488025	-0.048950333
45	0x3e1989f4	0.14994031
46	0x3ddcc57e	0.10779856
47	0xbce58bf1	-0.02802083
48	0x3d6ec723	0.05829538
49	0xbce860d5	-0.028366486
50	0x3d4fdfb8	0.050750464
51	0xbdabfb10	-0.08397496
52	0xbdbfefb4	-0.093718916
53	0xbba9fc23	-0.0051875277
54	0x3e261556	0.16219077
55	0x3cfabc94	0.0306075
56	0xbd8b3966	-0.06798057
57	0x3db7a351	0.08966697
58	0xbdf18980	-0.11793804
59	0xbce9eea6	-0.02855618
60	0x3d3000a8	0.042969376
61	0x3d00946e	0.031391554
62	0x3c38a98f	0.011270895
63	0x3d91c2cf	0.07117235
64	0xbd894633	-0.067028426
65	0xbd31abe5	-0.043376822
66	0xbc51bb3f	-0.012800991
67	0xbde4e129	-0.111757584
68	0x3c8620a6	0.01637299
69	0x3d2c1622	0.042013295
70	0xbc075fde	-0.008262603
71	0x3df50ef4	0.11965743
72	0xbe40b58a	-0.18819252
73	0x3d00c675	0.031439263
74	0xbc8e304b	-0.017357012
75	0x3ba121f2	0.0049173767
76	0x3d4ba1b7	0.04971477
77	0xbe48af82	-0.19598201
78	0x3de50765	0.11183051
79	0xbc6b8b39	-0.014376455
80	0xbe34e1d6	-0.17664275
81	0x3d03cacc	0.032175824
82	0x3d4dc6a6	0.050238274
83	0xbe008f46	-0.12554654
84	0x3d0f3362	0.03496111
85	0x3b9fbc9a	0.004874778
86	0xbcc52450	-0.024065167
87	0x3d555f48	0.05209282
88	0x3e1c817a	0.15283766
89	0xbc65fd80	-0.01403749
90	0x3d8553d1	0.06510127
91	0xbd802dab	-0.062587105
92	0xbc916ad2	-0.017751131
93	0xbd82546e	-0.0636376
94	0xbda0361d	-0.07822821
95	0x3dbc151b	0.09183713
96	0x3d5f6383	0.05453826
97	0xbe03b068	-0.12860262
98	0x3ba2bcc3	0.00496635
99	0xbd4b684f	-0.049660023
100	0xbcdd2179	-0.0269935
101	0x3d027f73	0.031859826
102	0xbe493e25	-0.19652613
103	0x3e194577	0.14967905
104	0x3d82b7ae	0.0638269
105	0x3b02b485	0.0019944024
106	0x3d078b86	0.033092044
107	0x3d501d5b	0.050809246
108	0xbd67b209	-0.056566272
109	0xbd1b1bbe	-0.037868254
110	0x3d218691	0.039434973
111	0xbdf32b92	-0.11873545
112	0xbe15d691	-0.14632632
113	0xbd8c95e2	-0.068645254
114	0xbe1a8ac2	-0.15091994
115	0x3da921e8	0.0825842
116	0xbd04e909	-0.032448802
117	0x3c2fd2f9	0.010731452
118	0x3daaefe7	0.08346539
119	0xbbe2c2d1	-0.0069201966
120	0x3d728601	0.059209827
121	0x3d851f05	0.06500057
122	0xbcf87343	-0.030328399
123	0xbc112612	-0.008859174
124	0x3af9b4b8	0.0019051051
125	0xbb8754e8	-0.0041299947
126	0x3e0b0b14	0.13578445
127	0x3e0f365f	0.13985585
128	0x3d67bb45	0.05657508
129	0xbd2e20a4	-0.042511597
130	0xbc60ba63	-0.013716313
131	0xbccb69c4	-0.024830706
132	0x3c76f1b3	0.015072274
133	0xbda23cdc	-0.07921764
134	0x3b46818d	0.003028962
135	0xbdf5c137	-0.119997434
136	0xbd9756d1	-0.07389606
137	0xbd8a39d7	-0.06749313
138	0x3d564cd1	0.05231935
139	0x3e007d06	0.12547693
140	0x3d4253d1	0.047443215
141	0x3defc02d	0.117065765
142	0xbd2074cb	-0.039173882
143	0x3daa87af	0.08326661
144	0x3d197e69	0.03747407
145	0xbc1a722b	-0.009426634
146	0xbd2a81d5	-0.041627724
147	0xbdaff86a	-0.08592303
148	0x3dd20548	0.102549136
149	0x3dbd0797	0.09229963
150	0xbc5defe1	-0.013545961
151	0x3e031690	0.12801576
152	0x3dd565e7	0.10419827
153	0x3d3a8496	0.0455366
154	0x3d7c78c9	0.061638627
155	0xbd4d1483	-0.05006839
156	0x3d5a1052	0.05323822
157	0xbd2135e8	-0.03935805
158	0xbd7405ae	-0.05957573
159	0x3d62075b	0.055182796
160	0x3dd713cb	0.10501822
161	0x3da6aeb1	0.081387885
162	0x3db95482	0.09049322
163	0xbe3b9ac3	-0.18320756
164	0xbd988e0c	-0.07448968
165	0x3e5fd626	0.21859035
166	0xbab8040a	-0.001403929
167	0xbda19ec3	-0.078916095
168	0xbd497a9c	-0.049189195
169	0x3dcde74c	0.10053882
170	0x3db92207	0.09039693
171	0x3dbd1c03	0.092338584
172	0xbd604732	-0.054755397
173	0xbddde92a	-0.10835488
174	0x3deb6205	0.11493305
175	0x3dbee063	0.09320142
176	0x3ce8fbe4	0.028440423
177	0xbcd18230	-0.025574774
178	0xbc8961ec	-0.016770326
179	0xbe02e7fd	-0.12783809
180	0xb9e655ec	-0.00043933035
181	0xbd77e8db	-0.060524803
182	0xbce7558f	-0.02823904
183	0xbd069b53	-0.032862972
184	0x3def0faf	0.11672913
185	0xbda52d92	-0.080653325
186	0xbdba08d8	-0.09083718
187	0x3cce6793	0.025195872
188	0xbd8bd0c7	-0.068269305
189	0x3d15692d	0.036477257
190	0x3d9b023b	0.07568785
191	0x3c7733c4	0.0150880255
192	0xbbafeb2f	-0.0053686122
193	0x3b187375	0.0023262177
194	0xbddc38b5	-0.107530035
195	0xbbdbd2e8	-0.0067084916
196	0x3c9b1aab	0.018933615
197	0xbbe63d9a	-0.0070263864
198	0xbcd95ed4	-0.026534475
199	0x3aeae0d7	0.0017919791
200	0x3c8f895f	0.017521558
201	0xbc8d40fd	-0.017242903
202	0x3d6ec68e	0.058294825
203	0x3e0cf0c5	0.13763721
204	0xbd3efd19	-0.04662809
205	0xbd85fbaf	-0.065421455
206	0xbe24a2f9	-0.16077794
207	0x3d89553c	0.0670571
208	0xbd6495cb	-0.055806916
209	0x3e130349	0.14356722
210	0x3d961b0d	0.07329378
211	0xbd3b0861	-0.045662288
212	0x3cd5f995	0.026119987
213	0x3de6ffb6	0.11279242
214	0xbdac3076	-0.08407681
215	0xbdb1833b	-0.08667608
216	0x3e009617	0.12557255
217	0x3d5de03f	0.054168936
218	0x3d14780d	0.0362473
219	0xbdb0bf41	-0.08630229
220	0x3dec4632	0.11536826
221	0xbd99d7f4	-0.07511893
222	0xbcc23567	-0.023707105
223	0xbe0fc9d4	-0.14041835
224	0xbe252449	-0.16127123
225	0x3da5fd36	0.08104937
226	0xbd8fbd95	-0.07018582
227	0xbc7c12d0	-0.015385345
228	0xbd87c9f3	-0.06630316
229	0x3dcd034d	0.10010395
230	0x3d152cdd	0.036419738
231	0xbca1568e	-0.019694593
232	0x3dd17ce0	0.10228896
233	0x3de7038b	0.11279973
234	0xbc88e472	-0.016710494
235	0x3ce80b77	0.02832578
236	0x3e1a84bb	0.15089695
237	0x3e1b8e27	0.15190946
238	0x3cfcf949	0.030880587
239	0xbd7727db	-0.060340744
240	0xbe01cca5	-0.12675722
241	0xbdf5e889	-0.12007243
242	0x3d17190b	0.036889117
243	0x3cb23ed9	0.021758484
244	0x3cbfa833	0.023395633
245	0xbd491363	-0.049090754
246	0x3bea6b2a	0.0071538882
247	0xbda26073	-0.079285525
248	0xbd942997	-0.07234495
249	0xbd1e8d0d	-0.038708735
250	0x3da3a959	0.07991285
251	0xbe31a21d	-0.17346998
252	0xbc29d868	-0.010366537
253	0x3d8863e4	0.066596776
254	0xbd086b96	-0.033305727
255	0x3d78df5e	0.060759895

B.0.weight f4 [32, 32, 3, 3]
0	0x3dfcd368	0.1234501
1	0xbcc88d15	-0.024481336
2	0x3dc496ea	0.09599097
3	0xbd31bb48	-0.043391496
4	0xbdd85659	-0.105633445
5	0x3db82f74	0.08993426
6	0x3d2e1a85	0.04250576
7	0xbe28ced7	-0.16485153
8	0xbd772f43	-0.060347807
9	0xbc9aec37	-0.018911464
10	0x3cd6a38f	0.026201038
11	0x3cfbe2f0	0.03074786
12	0xbdbf86b0	-0.093518615
13	0xbcae0c5f	-0.021246133
14	0xbc38f73c	-0.011289414
15	0xbd184514	-0.037175253
16	0x3d61d1a0	0.055131555
17	0xbda14f57	-0.07876461
18	0x3d045639	0.03230879
19	0xbde0b4ff	-0.10972022
20	0x3d63402a	0.055481113
21	0x3d5786e8	0.05261889
22	0xbd1811ce	-0.037126355
23	0xbb13fd61	-0.0022581446
24	0x3d79f065	0.061020274
25	0xbcb3b220	-0.021935523
26	0x3d5c1591	0.053731505
27	0xbd367451	-0.04454452
28	0xbdad024e	-0.08447705
29	0x3b83f13b	0.0040265596
30	0xbcf832a9	-0.030297594
31	0xbdbdb020	-0.09262109
32	0x3db063eb	0.08612808
33	0xbd59579f	-0.053062078
34	0xbc379285	-0.011204367
35	0x3d02d756	0.03194364
36	0xbd795d9b	-0.060880285
37	0xbd88b26b	-0.066746555
38	0x3db918ad	0.0903791
39	0x3bd2da9f	0.006434753
40	0x3cdb1c85	0.026746998
41	0xbbe9b253	-0.0071318536
42	0xbd97a916	-0.074052975
43	0xbc8b7f00	-0.017028332
44	0x3d101774	0.035178617
45	0xbc5b2cb1	-0.0133773545
46	0xbc81b20e	-0.015831973
47	0xbd0e2407	-0.034702327
48	0x3aa2b404	0.0012413268
49	0xbcb64e0d	-0.022254014
50	0x3c602609	0.013680943
51	0x3cf17eb4	0.029479362
52	0x3d15ccce	0.03657227
53	0xbdabb99e	-0.08385013
54	0xbd82d9f2	-0.06389226
55	0xbcdf40cf	-0.027252583
56	0x3d803005	0.06259159
57	0x3d1b6454	0.037937477
58	0x3d2c1e7b	0.042021256
59	0xbd6b63ed	-0.057468344
60	0x3d0b216c	0.03396742
61	0x3d4577a2	0.048209794
62	0x3b58d459	0.0033085553
63	0xbd26e2ba	-0.040743567
64	0x3c106ecc	0.0088154785
65	0x3d1afde1	0.037839774
66	0x3c25247e	0.010079501
67	0xbda208df	-0.07911848
68	0x3d971d33	0.07378616
69	0x3bb323fe	0.005466937
70	0x3dabe65f	0.08393549
71	0x3d79eaca	0.061014928
72	0xbd2e99e2	-0.042627223
73	0x3d6e4c5c	0.05817829
74	0xbc785414	-0.015156765
75	0x3c4cda33	0.012503195
76	0x3c23d4e1	0.009999485
77	0x3d94223d	0.07233093
78	0xbe13601a	-0.14392129
79	0x3daf73a3	0.08566978
80	0x3e235e63	0.15953974
81	0x3d258201	0.040407185
82	0xbcbb0793	-0.02283076
83	0xbb1ae05e	-0.0023632268
84	0x3d29d0b2	0.041458793
85	0xbd60a891	-0.054848257
86	0xbd600a53	-0.054697346
87	0x3d7648a5	0.060127873
88	0x3be9aa9f	0.0071309353
89	0xbd97fda8	-0.07421428
90	0x3d1d1cf4	0.03835769
91	0xbe30ac8f	-0.17253326
92	0xbcbc9494	-0.023020066
93	0xbdb39019	-0.08767719
94	0xbcec1f98	-0.028823659
95	0x3cc71308	0.024301067
96	0xbc96df40	-0.018417
97	0x3de0d27c	0.10977647
98	0x3c47de4e	0.012198998
99	0xbcc8f2bb	-0.024529805
100	0xbc5a0322	-0.013306411
101	0xbdacc6e3	-0.08436372
102	0xbca5fd7c	-0.020262472
103	0xbd02807a	-0.031860806
104	0xbbc1810d	-0.0059052766
105	0x3a981167	0.0011601866
106	0x3d67b91d	0.056573022
107	0x3d066f11	0.032820765
108	0xbcbeec91	-0.023306163
109	0xbd841777	-0.06449788
110	0x3c2d5b09	0.0105807865
111	0xbd2a34ec	-0.041554376
112	0x3cf759c9	0.03019418
113	0x3d43fe88	0.04785016
114	0x3d2f43d3	0.04278929
115	0xbdbde089	-0.09271342
116	0x3cfe1691	0.03101662
117	0x3d997a26	0.07494001
118	0x3cc6a69a	0.024249364
119	0x3d875d9d	0.06609652
120	0x3b00b85d	0.001964114
121	0xbd2c659e	-0.042089097
122	0xbd560228	-0.05224815
123	0x3cf0ecfb	0.029409876
124	0x3d9e1cfc	0.07720372
125	0xbe0310d8	-0.12799394
126	0xbd7b36fc	-0.061331734
127	0x3d2d942e	0.042377643
128	0x3c96047c	0.018312685
129	0xbd244332	-0.040103145
130	0x3d201610	0.03908354
131	0x3e01c5ef	0.12673162
132	0xbc709239	-0.0146833
133	0x3d9a0f23	0.07522418
134	0x3c470b77	0.0121487295
135	0x3dd89eea	0.105771855
136	0xbd872053	-0.06597962
137	0xbde37a47	-0.11107307
138	0xbd1d232e	-0.038363628
139	0xbcde28a4	-0.027118988
140	0x3d7651d2	0.060136624
141	0xbb36aa9d	-0.002787269
142	0x3d043c8d	0.03228431
143	0xbd186b64	-0.03721179
144	0xbd30fdb3	-0.043210696
145	0xbc3188c8	-0.010835834
146	0xb92edba2	-0.00016675753
147	0xbce7823e	-0.028260347
148	0xbc32c084	-0.010910157
149	0x3cb32fd1	0.021873387
150	0xbb51defe	-0.0032023783
151	0xbcc9ddb6	-0.024641853
152	0x3d07abd9	0.03312287
153	0x3c4f8048	0.012664862
154	0xbc7c3a98	-0.015394829
155	0x3c79125b	0.01520213
156	0x3d2b27e0	0.041786075
157	0xbc2a063d	-0.010377464
158	0x3ce99cde	0.028517183
159	0xbd97bf3d	-0.07409523
160	0x3d2f621d	0.042818177
161	0xbd68c770	-0.056830823
162	0xbd3fd1da	-0.04683099
163	0x3aa396aa	0.0012480814
164	0xbd142297	-0.0361658
165	0x3d2d2956	0.04227575
166	0x3c199cb4	0.00937574
167	0xbc0086af	-0.007844611
168	0xbdc083ee	-0.094001636
169	0xbc7856e7	-0.015157438
170	0xbde0dcc6	-0.10979609
171	0xb96044ba	-0.00021387907
172	0x3d28683e	0.041115038
173	0xbdc8e957	-0.09810131
174	0xbd3588af	-0.044319805
175	0x3d26a233	0.04068203
176	0x3cdf7502	0.027277473
177	0xbd4d9c8a	-0.050198115
178	0xbdc56440	-0.09638262
179	0x3d4a1f28	0.04934612
180	0x3dd9a817	0.10627764
181	0x3dde8dc5	0.10866884
182	0x3dc8624f	0.09784376
183	0x3d9449c9	0.07240636
184	0x3ca1fb9a	0.019773293
185	0x3d828408	0.06372839
186	0x3c1737b2	0.009229587
187	0xbb3c1b68	-0.0028702859
188	0xbdc62293	-0.09674563
189	0x3db20c77	0.08693784
190	0x3d8dbf12	0.069212094
191	0x3c84ecaa	0.016226131
192	0xb976ad9e	-0.00023525066
193	0xbd2c8708	-0.042120963
194	0xbcb4a896	-0.022053044
195	0xbd0b8770	-0.03406471
196	0xbcfb2e5c	-0.030661754
197	0xbcb444a7	-0.022005392
198	0x3d3331d9	0.04374871
199	0x3c9e4aed	0.019322837
200	0xbc18dda8	-0.009330191
201	0xbd54b89d	-0.051933873
202	0xbd05cab5	-0.03266402
203	0x3df4aca1	0.11946989
204	0xbcf1e4af	-0.02952799
205	0xbd8cbd97	-0.06872099
206	0xbdb1c593	-0.086802624
207	0x3d217ad8	0.039423794
208	0x3d0fa669	0.03507081
209	0x3d37a4e3	0.044834983
210	0x3c80867f	0.015689133
211	0xbccaa5c1	-0.02473724
212	0xbb50943e	-0.003182664
213	0x3d001b01	0.031275753
214	0xbc9ef2a4	-0.01940281
215	0xbdd4f313	-0.10397925
216	0x3a4bbd56	0.00077720487
217	0x3d7d5312	0.0618468
218	0xbd8714ad	-0.065957405
219	0xb98bc35f	-0.0002665771
220	0x3c1d8b13	0.009615677
221	0x3ca4d88c	0.020122789
222	0x3c3eeb8e	0.01165284
223	0x3d27bd8e	0.040952258
224	0x3d38c859	0.04511294
225	0x3d351b9d	0.044215787
226	0xbcbf801d	-0.023376519
227	0x3be8afb8	0.0071010254
228	0x3da3e949	0.0800348
229	0xbd544e85	-0.051832695
230	0xbe08401d	-0.13305707
231	0x3df7b6fd	0.12095449
232	0xbc0256b9	-0.007955247
233	0x3d7e69b3	0.06211252
234	0x3bcd7ba6	0.0062708436
235	0x3d8690d7	0.06570595
236	0x3d9ee259	0.07758016
237	0xbd409837	-0.047020163
238	0xbc8bd293	-0.017068183
239	0x3e06fec4	0.13183123
240	0xbdd147c5	-0.10218767
241	0x3d573065	0.052536387
242	0xbbe62ce6	-0.0070243953
243	0xbc97d33a	-0.018533338
244	0xbdcc42e9	-0.099736996
245	0xbc88f3a9	-0.016717749
246	0xbc86c765	-0.0164525
247	0xbda58891	-0.080826886
248	0x3a976347	0.0011549973
249	0x3d581088	0.05275014
250	0x3dbfb474	0.093605906
251	0xbcdc5472	-0.026895735
252	0xbb0d88a5	-0.002159634
253	0xbd88e783	-0.06684782
254	0x3d0424fa	0.032261826
255	0xbd1ff713	-0.039053988

AT2.0.weight f4 [1, 32, 3, 3]
0	0x3d6260ca	0.055268086
1	0xbdc5c8e4	-0.096574575
2	0xbd6370d7	-0.055527534
3	0xbd988e35	-0.07448999
4	0xbc81fa03	-0.015866285
5	0x3c602cf3	0.013682592
6	0x3cd2ead2	0.025746737
7	0xbc96613a	-0.018356908
8	0xbc0d1937	-0.008611969
9	0xbd17afbd	-0.03703283
10	0xbd22c39e	-0.039737336
11	0x3c0d9cb8	0.008643322
12	0x3dc7a2bf	0.09747838
13	0x3d8799c9	0.06621129
14	0x3dcc2292	0.09967531
15	0xbdb63f43	-0.08898785
16	0x3d9449f8	0.07240671
17	0xbcc3cbfc	-0.023900978
18	0x3e318249	0.17334856
19	0x3dd808d9	0.105485626
20	0x3d9c5543	0.0763345
21	0x3b399786	0.0028319075
22	0x3d8fac08	0.07015234
23	0xbd885b9f	-0.066581
24	0xbcbd78eb	-0.023128947
25	0xbdbb4412	-0.09143843
26	0xbd78fed8	-0.060789913
27	0xbd167c8f	-0.036739882
28	0x3c1081f4	0.008820046
29	0x3d602e21	0.054731492
30	0x3e003300	0.12519455
31	0xbd72c942	-0.059273966
32	0xbd043ec7	-0.03228643
33	0x3db8f5a7	0.090312295
34	0x3d7743fe	0.060367577
35	0xbdd94eb4	-0.106107146
36	0xbdef3a7c	-0.11681077
37	0x3dc09e8e	0.09405242
38	0x3ccee374	0.025254942
39	0xbe351a1b	-0.1768574
40	0x3e7ca318	0.2467159
41	0xbe02a8de	-0.1275973
42	0xbceb93c2	-0.02875698
43	0x3d142f0a	0.036177672
44	0x3b41c0eb	0.002956445
45	0x3d47c725	0.048773903
46	0xbdb027ca	-0.08601339
47	0x3e0dfa77	0.13865076
48	0xbd41d1b3	-0.047319125
49	0x3b198fdf	0.00234317
50	0x3dc39993	0.09550776
51	0x3d8b2977	0.06795018
52	0xbe00328a	-0.12519279
53	0xbdcce3f9	-0.1000442
54	0x3c141ea7	0.009040511
55	0x3bab497b	0.0052272654
56	0xbdb22e9c	-0.08700296
57	0x3cf14763	0.029452985
58	0x3d8237a8	0.06358272
59	0x3dbfee8d	0.09371672
60	0xbc49a617	-0.012307665
61	0x3c4a7da3	0.012359056
62	0xbd0c941f	-0.034320947
63	0xbc5feb61	-0.013666959
64	0xbdbdb156	-0.0926234
65	0xbdd7d47c	-0.10538575
66	0xbe0a0d6b	-0.13481681
67	0xbd914e62	-0.070950285
68	0xbcb07292	-0.021539006
69	0xbd0c486e	-0.03424876
70	0xbd34085c	-0.043953285
71	0x3d7ae7e6	0.06125631
72	0x3df9a4ef	0.12189662
73	0x3c6ada4f	0.014334275
74	0xbce1188e	-0.027477529
75	0xbc564009	-0.013076791
76	0x3d34710e	0.04405313
77	0xbd941b07	-0.072317176
78	0x3dc89edf	0.09795927
79	0xbd72e08d	-0.05929618
80	0xbd757d21	-0.059933785
81	0x3dbd2a0c	0.092365354
82	0xbdeb5d87	-0.11492448
83	0x3d67dca1	0.056606892
84	0xbd2c6e0f	-0.042097148
85	0xbcc84599	-0.02444725
86	0xbde0d49d	-0.10978053
87	0x3d2ac261	0.04168928
88	0xbda5d688	-0.08097559
89	0xbc58a218	-0.01322224
90	0xbda98cb3	-0.08278789
91	0xb8b0ed67	-8.4365536e-05
92	0x3ce55ce4	0.027998395
93	0x3d6ca836	0.057777606
94	0xbd13801b	-0.036010843
95	0x3d9bd64e	0.07609235
96	0x3ca5492c	0.020176493
97	0x3c7cd48d	0.015431535
98	0xbc8aa9c4	-0.016926654
99	0xbd8c8e45	-0.06863073
100	0xbd935b9a	-0.07195206
101	0xbd72e91b	-0.059304338
102	0x3c9f8165	0.01947088
103	0x3d53e3f9	0.051731084
104	0x3d8f36ab	0.06992849
105	0x3b815d1a	0.003947866
106	0x3e0d2c07	0.13786326
107	0xbd8319c0	-0.06401396
108	0x3e0b7ee7	0.13622628
109	0x39d75989	0.00041074704
110	0xbd16b2bc	-0.036791548
111	0x3cc6db77	0.02427457
112	0x3d3003e4	0.04297246
113	0x3e14b83d	0.14523406
114	0xbd1551b1	-0.03645486
115	0xbbf3212e	-0.007419727
116	0x3e6bcc61	0.23027183
117	0x3caec96d	0.021336282
118	0x3cb235a1	0.021754088
119	0x3d9d539d	0.076819636
120	0xbdb4c9b0	-0.08827531
121	0xbdb80b57	-0.08986538
122	0xbd0b93c1	-0.034076456
123	0xbd692298	-0.056917757
124	0xb94a98c4	-0.00019321131
125	0xbd57b663	-0.052664172
126	0x3cd823fc	0.026384346
127	0x3c892d3e	0.016745206
128	0xbcbddf3e	-0.02317774
129	0x3e4b1452	0.1983197
130	0xbbc22a53	-0.0059254556
131	0xbd8cdd0e	-0.068781
132	0xbe084936	-0.13309178
133	0x3ddcf7cb	0.1078945
134	0xbd30fd75	-0.043210465
135	0xbdd07497	-0.10178488
136	0x3d77df6c	0.060515806
137	0x3c9a00bc	0.018799178
138	0x3e225875	0.15854056
139	0x3e4b18b2	0.1983364
140	0xbdfb0fb0	-0.122588515
141	0x3d3ee7d3	0.046607804
142	0x3cacccda	0.021093775
143	0x3cd8deb9	0.02647339
144	0x3c7a2270	0.015267
145	0x3d5095a3	0.050923955
146	0xbbc7fe51	-0.006103315
147	0x3d89121a	0.06692906
148	0xbdbe03b3	-0.09278049
149	0xbd993413	-0.074806355
150	0x3d0e1e78	0.034697026
151	0xbc55256f	-0.013009413
152	0xbdbb0f87	-0.09133821
153	0xbd7684f2	-0.06018538
154	0x3dcd4f72	0.100249186
155	0xbb0da824	-0.0021615112
156	0x3d6b3127	0.057419922
157	0x3d127b2f	0.03576201
158	0x3dc7727c	0.09738633
159	0x3d814467	0.06311875
160	0xbdc91083	-0.098176025
161	0xbd1b84ac	-0.037968323
162	0x3aa5623a	0.0012617775
163	0x3db916a3	0.09037521
164	0xbcbcc26f	-0.023041932
165	0xbac32a3c	-0.0014889906
166	0xbcdb35d4	-0.026759066
167	0x3cc3c1d3	0.023896134
168	0x3ddc5f02	0.10760309
169	0xbdf1369c	-0.11777994
170	0xbded544d	-0.11588345
171	0x3d93b04d	0.07211361
172	0x3b0c4a86	0.0021406724
173	0xbe21b3cb	-0.15791242
174	0x3d5ff916	0.054680906
175	0xbcf78594	-0.030215062
176	0xbe3a109b	-0.18170397
177	0x3d6c00ec	0.057618067
178	0xbbc95d6f	-0.0061451714
179	0xbdd59739	-0.10429234
180	0x3c4184da	0.011811459
181	0x3d68ddef	0.056852277
182	0xbd177de9	-0.03698531
183	0xbd2e5ff9	-0.042571995
184	0xbe1274ce	-0.1430237
185	0xbde0c678	-0.10975355
186	0xbe520c00	-0.2051239
187	0xbdb26d54	-0.08712259
188	0xbe223707	-0.15841304
189	0x3db6f5f8	0.089336336
190	0x3da8f350	0.08249533
191	0xbcb32569	-0.021868424
192	0x3e01aa12	0.12662533
193	0xbc95178c	-0.018199705
194	0xbd7ae5ff	-0.061254498
195	0xbb8c5e2d	-0.0042836876
196	0x3df069de	0.117389426
197	0x3d96b6d9	0.07359094
198	0xbd9498f1	-0.07255734
199	0x3dcb40d4	0.09924474
200	0x3dd97077	0.10617154
201	0xbd1a45cd	-0.037664223
202	0x3d562623	0.052282464
203	0xbb22b937	-0.0024829635
204	0x3e009a52	0.12558869
205	0x3d7d8915	0.06189831
206	0x3dba2c51	0.09090484
207	0xba1d5449	-0.0006001634
208	0x3b4d5fff	0.0031337736
209	0x3d40f16a	0.04710523
210	0x3dd35b8c	0.103201956
211	0xbd959248	-0.073032916
212	0x3ce41c0a	0.027845401
213	0xbdf81a9d	-0.12114451
214	0x3c708746	0.014680689
215	0xbce99ea7	-0.028518034
216	0x3dff501f	0.12466454
217	0x3d62b951	0.055352513
218	0x3cb41f18	0.021987483
219	0x3dad3237	0.08456843
220	0xbd605faa	-0.054778732
221	0xbd046834	-0.03232594
222	0xbdab7d98	-0.083735645
223	0xbe7b9c32	-0.24571303
224	0x3d5c5f08	0.053801566
225	0x3de266e0	0.11054778
226	0x3c6185a3	0.013764772
227	0x3da5bbce	0.080924615
228	0x3d0323ef	0.03201669
229	0xbceb3538	-0.0287119
230	0xbd7aba79	-0.06121299
231	0xbd01534d	-0.031573582
232	0xbc515aeb	-0.012778024
233	0x3d7a9870	0.061180532
234	0x3bcac449	0.00618795
235	0xbd47081e	-0.048591726
236	0x3dee7fc6	0.116454646
237	0xbd270960	-0.040780425
238	0x3bfb7950	0.0076743737
239	0x3e2c2e7e	0.1681461
240	0xbd857234	-0.06515923
241	0xbdf7caba	-0.12099214
242	0xbdea7117	-0.114473514
243	0x3e3b9ba0	0.18321085
244	0x3a768b51	0.0009404915
245	0xbe31f64f	-0.17379116
246	0x3daeefaa	0.08541806
247	0x3e018ee2	0.12652162
248	0xbd85180b	-0.064987265
249	0x3ce6fdb1	0.028197141
250	0xbbae2860	-0.0053148717
251	0x3d4aaee8	0.04948321
252	0xbd85263a	-0.06501432
253	0xbd7a9be8	-0.06118384
254	0xbe02443f	-0.12721346
255	0x3d3c3dce	0.04595738

BT.0.weight f4 [32, 32, 3, 3]
0	0x3cc4f09a	0.024040509
1	0x3dcdeb20	0.10054612
2	0xbd23cf53	-0.03999264
3	0xbd13d813	-0.036094736
4	0xbba3dd0d	-0.0050007165
5	0x3c85c791	0.016330512
6	0x3c01a7b4	0.007913519
7	0xbb74173e	-0.0037245299
8	0xbdb471ba	-0.08810754
9	0xbbb4d7bb	-0.005518881
10	0x3d312ec0	0.043257475
11	0xbd2c4abd	-0.042063463
12	0x3d0a397b	0.033746224
13	0x3d1ff2ad	0.039049793
14	0xbd4f9700	-0.050681114
15	0x3a7a2a81	0.0009543077
16	0x3dcae0d6	0.09906165
17	0xbccb48f5	-0.024815062
18	0xbd630151	-0.055421177
19	0x3c68895f	0.014192908
20	0x3d785206	0.0606251
21	0xbd62eafc	-0.05539988
22	0x3d22d545	0.03975417
23	0x3ca0bdc2	0.019621734
24	0xbc9b317b	-0.018944493
25	0x3cec0e37	0.028815372
26	0xbda71886	-0.08158974
27	0x3ccf42ef	0.025300471
28	0xbd0ba8fa	-0.034096695
29	0xbd747456	-0.05968126
30	0x3c2bbfb4	0.010482717
31	0x3d655e52	0.055998154
32	0x3d54b330	0.0519287
33	0x3c6f2e0d	0.014598382
34	0xbc447d61	-0.011992783
35	0x3d54264a	0.051794328
36	0xbd3771d7	-0.0447863
37	0x3e014240	0.12622929
38	0x3d108829	0.035286102
39	0x3d89c2fc	0.067266434
40	0xba84ed93	-0.0010141603
41	0xbca84f90	-0.02054575
42	0xbc35f8fc	-0.011106726
43	0xbdafb2c5	-0.085790195
44	0x3daf8176	0.085696146
45	0xbde8b2a1	-0.11362196
46	0xbcd12065	-0.025528142
47	0x3c48d6b3	0.0122582195
48	0x3d94be43	0.07262852
49	0x3d1a8474	0.037723973
50	0x3e060362	0.13087228
51	0xbdaf7d97	-0.08568876
52	0xbd91b86b	-0.07115253
53	0xbd39b839	-0.045341704
54	0xbc4d5aad	-0.012533826
55	0x3d1f7855	0.038933117
56	0xbc8e712f	-0.017387955
57	0x3c92f12e	0.017937269
58	0xbcdcc2a0	-0.026948273
59	0x3d8b6c20	0.068077326
60	0xbc4857f3	-0.012228
61	0x3d77f7e8	0.060539156
62	0xbd46308a	-0.048386134
63	0x3c81cb6e	0.015844073
64	0xbcc5aecd	-0.024131203
65	0x3cc668df	0.024219928
66	0x3cdcdd2d	0.026960934
67	0xbd513cbc	-0.05108331
68	0xbd9bab7d	-0.07601068
69	0xbcd73276	-0.026269179
70	0x3df8767c	0.12131974
71	0x3d8cef8d	0.06881628
72	0x3d6cb22a	0.057787098
73	0xbd1493ab	-0.03627364
74	0x3cc8d691	0.024516376
75	0xbd7b8f3a	-0.06141589
76	0x3c6fcd4e	0.014636351
77	0x3de98a8e	0.1140338
78	0xbcf20e0f	-0.02954772
79	0x3caa24c5	0.020769486
80	0x3d6a5ed7	0.057219353
81	0x3d7932bf	0.06083941
82	0xbd4e5d15	-0.05038174
83	0xbafe4ef3	-0.0019402191
84	0x3b512d03	0.0031917698
85	0x3d33e406	0.043918632
86	0x3bea4021	0.007148758
87	0x3d00439b	0.031314474
88	0xbdd5b69b	-0.1043522
89	0xbda8f7df	-0.08250403
90	0xbd9e1647	-0.07719093
91	0x3d917cb7	0.071038656
92	0xbcc968c7	-0.024586095
93	0xbd9b1969	-0.07573206
94	0xbbc767ce	-0.0060853725
95	0x3da4b76d	0.08042798
96	0xbc9fa830	-0.019489378
97	0xbd8188a6	-0.06324892
98	0xbc32b66a	-0.010907749
99	0x3cdd44b9	0.027010309
100	0x3d0c9960	0.034325957
101	0xbb501518	-0.0031750854
102	0xbc054e0d	-0.008136285
103	0x3d92443d	0.07141922
104	0xbd989bbe	-0.074515805
105	0xbd91f6c7	-0.07127147
106	0xbca48b30	-0.020085901
107	0x3d37cb77	0.044871774
108	0xbdb572e5	-0.08859805
109	0xbc8ff07c	-0.017570727
110	0xbb267238	-0.002539767
111	0x3d30d9b5	0.04317637
112	0xbc65f2a2	-0.014034899
113	0xbd6ad31d	-0.05733024
114	0x3d72ab97	0.059245672
115	0xbd93674f	-0.07197439
116	0xbde33784	-0.11094573
117	0x3d25dbdc	0.040492877
118	0x3d2375e3	0.039907347
119	0xbe1424ab	-0.14467113
120	0x39d1de70	0.00040029315
121	0xbdc8d149	-0.09805543
122	0xbd1aca03	-0.03779031
123	0xbd0142f8	-0.031558007
124	0x3d9101b4	0.07080403
125	0xbc2ed931	-0.0106719
126	0x3d1290c9	0.03578261
127	0x3cb67bed	0.02227589
128	0xbd534380	-0.051578045
129	0x3d5d8257	0.05407938
130	0x3c688aa1	0.014193208
131	0xbd83b760	-0.064314604
132	0x3d95bf0e	0.073118314
133	0xbd621307	-0.055193927
134	0x3cba0e3d	0.022711867
135	0x3cdbefd4	0.026847757
136	0xbd5354c7	-0.05159452
137	0x3e82c770	0.25542784
138	0xbcf5d748	-0.03000988
139	0x3b067485	0.0020516228
140	0x3d7db0f8	0.06193635
141	0x3b9a404d	0.0047073723
142	0x3d2f78b6	0.04283973
143	0xbdbdf2e4	-0.09274843
144	0xbcec1664	-0.02881927
145	0xbc6d0721	-0.014467032
146	0xbd22686b	-0.039650362
147	0x3d1ae4d9	0.037815902
148	0xbd521463	-0.051288974
149	0xbd32ac42	-0.04362131
150	0xbde20a52	-0.11037125
151	0x3cb7ceb3	0.022437429
152	0x3af573f6	0.0018726576
153	0xbddc875f	-0.107680075
154	0x3ca58f46	0.02020992
155	0xbc9d11fd	-0.019173617
156	0xbc41e5c8	-0.011834569
157	0xbda411b1	-0.08011187
158	0x3c5a79a8	0.013334669
159	0xbd5cae89	-0.053877387
160	0x3d08257a	0.033238865
161	0xbccc5ce7	-0.024946643
162	0x3cf7c97b	0.03024744
163	0xbd0b03e3	-0.033939254
164	0xbdaa8039	-0.08325238
165	0x3b44e08b	0.0030041065
166	0x3d331d2c	0.043728992
167	0x3c9cb5f6	0.019129734
168	0xbd7714b5	-0.060322482
169	0x3ca83fcd	0.020538235
170	0xbd84143e	-0.064491734
171	0xbd37f6ce	-0.044913106
172	0x3bd11dc3	0.0063817217
173	0xbccfa7d6	-0.025348585
174	0x3baf86dc	0.0053566527
175	0xbca2879a	-0.01984005
176	0x3d4aeef9	0.04954431
177	0x3c6b0c99	0.014346265
178	0x3d392d14	0.045209005
179	0xbd432eba	-0.047651984
180	0x3d3586fe	0.04431819
181	0xbd07750d	-0.033070613
182	0xbd0edf1a	-0.034880735
183	0xbde3e0af	-0.11126839
184	0xbd2e7247	-0.042589452
185	0xbe061d8e	-0.13097212
186	0xbd44b3bf	-0.04802298
187	0x3d4db34a	0.05021981
188	0x3dc77fd8	0.09741181
189	0x3df151ef	0.11783206
190	0x3d8fcfe9	0.070220776
191	0xbcdec672	-0.027194235
192	0x3d48fea4	0.04907097
193	0x3cc8d2ce	0.024514582
194	0x3dcc7723	0.09983661
195	0xbd3a1bee	-0.045436792
196	0x3d2fbfdf	0.042907592
197	0xbd74c59f	-0.05975878
198	0x3d7013dc	0.05861269
199	0x3af03829	0.0018327284
200	0x3caeb892	0.021328244
201	0x3dc4d23b	0.09610411
202	0xbcea42c8	-0.028596297
203	0x3cf3bde8	0.02975364
204	0xbddaae6b	-0.10677799
205	0x3c86575e	0.016399082
206	0x3d2bdbbe	0.04195761
207	0x3c9a861f	0.018862782
208	0x3d5a6db5	0.05332728
209	0x3c8d2808	0.017231002
210	0xbdab98e1	-0.08378769
211	0xbe05a716	-0.1305202
212	0xbd372ea8	-0.04472223
213	0x3d26042a	0.040531315
214	0x3d7d99c4	0.06191422
215	0xbd01764a	-0.03160695
216	0xbd1ebbf5	-0.03875347
217	0x3b3c6a6b	0.0028749953
218	0xbd949190	-0.07254326
219	0x3da01631	0.07816733
220	0xbca8912b	-0.020577034
221	0x3d8fa784	0.07014373
222	0x3c8c63a3	0.017137354
223	0x3e0bfacc	0.1366989
224	0xbdc33860	-0.09532237
225	0xbda22e14	-0.07918945
226	0xbc8cbe4f	-0.01718059
227	0x3cae323a	0.021264184
228	0xbc60bfca	-0.013717601
229	0x3da5f86c	0.08104023
230	0x3e129ab4	0.14316827
231	0xbd964578	-0.07337469
232	0xbc4a6cc2	-0.012355031
233	0x3d1653d2	0.03670103
234	0xbc67dcf0	-0.014151797
235	0x3d6249cd	0.055246163
236	0xbbdd7d26	-0.0067593036
237	0x3c74a766	0.014932489
238	0xbc1a73c7	-0.0094270175
239	0x3ca95ff2	0.020675633
240	0xbdaa5895	-0.08317677
241	0xbd4e3d72	-0.050351568
242	0xbd698496	-0.05701121
243	0x3da360ba	0.079774335
244	0x3d056484	0.032566562
245	0x3d451845	0.04811885
246	0x3d881076	0.06643765
247	0xbbd6abbe	-0.006551235
248	0x3d5bf20d	0.053697634
249	0xbced4183	-0.028961902
250	0xbdb05905	-0.08610729
251	0x3d985aaf	0.074391715
252	0x3d0c6290	0.034273684
253	0x3d4fd4cf	0.05074006
254	0x3df33a06	0.118763015
255	0x3d186220	0.037202954
